models/model1.pth (torch, 26009 bytes, 4 tensors)

linear1.weight f4 [256, 19]
00000000: d4cd 29bd cb84 55be a0b2 4ebe ce8e f53d
00000010: 86e9 8d3d 88fa 30be 5654 e13d 8a3f d5bd
00000020: 255a f1bd e07e 63bc 72e9 893d 002a e0ba
00000030: 26bb 913d 90e3 9b3c dd33 0d3e e735 37be
00000040: 6494 103d 46cd d2bd 82d9 b23d e682 2fbf
00000050: fc69 3fbf 1097 85bf 1a4c 8abf 8bdf 39bf
00000060: b3dd 563e a15a debd acd9 8ebd 89d7 debd
00000070: 784c 9fbc 6aaa 2fbf 21e0 46bf 5917 24bf
00000080: 7644 7f3f fa78 b83d 40d9 b4bc d2bd f93d
00000090: 5d73 57be 82ce 803d b97a 21bf bdd3 1abf
000000a0: 3c31 bdbe ac62 07bf 9c9c bcbe 86f9 0abe
000000b0: a336 3f3e 204b d7bc 8486 2fbd c70f 0ebe
000000c0: 50aa 7ebe e668 8ebe 424e 1d3f 7070 09bf
000000d0: 8794 2f3e 0a87 953d e189 47be ccb2 2ebe
000000e0: e871 3bbd 3dab 0dbf c2a1 efbe a48b d1be
000000f0: 216b d8be 10e6 dbbe b8a6 d3bc 983a c2bd
00000100: 00e7 2cbc e0fe b6bc 50b9 2b3c fd3c ccbe
00000110: ef3f e7be 8d5a 293f f500 95be 9086 82bd
00000120: da58 b13d 5c39 1a3d b73b 073e b3ca 403e
00000130: 2eba d83d 1369 45bf dbba 3abf db72 c3be
00000140: 16a0 fbbe ec61 30bd 704f 683c 34f4 0f3d
00000150: 061a c03d af91 553e 5b86 4fbf 9678 d1be
00000160: efd9 e03e 4a85 38bf e303 32be 8db4 233e
00000170: ded9 0abe 2d70 0d3e 0415 723d cbf5 47bf
00000180: 13f7 13bf 2233 f1be 9542 04bf 2caa 1cbf
00000190: 2eb8 bfbd 86c9 a0bd 70e9 64be 724a 48be
000001a0: 1195 233e 27a8 3fbf 971c 01bf 2e66 2f3f
000001b0: 1faa 3abf b0b2 863c 226f d63d e3ed 323e
000001c0: d00a 74bd 0287 61be f614 02bf 2a07 c1be
000001d0: 1742 9dbe 9617 9bbe 757b febe 4cc6 1dbe
000001e0: be54 1fbe ee83 8ebd 5254 b9bd 2c4a 243d
000001f0: 8203 e8be f157 1cbf 3134 9d3e bcce d1be
00000200: e310 563e 62d6 cabd 0ac6 d23d 0eaa 99bd
00000210: 8747 63be b290 74bf 6a34 86bf 57dc 77bf
00000220: d8e2 53bf ca1c 33bf 8595 583e d206 9d3d
00000230: 0f7b e6bd 611a 0d3e 42dc e8bd 00ef 40bf
00000240: afeb 1ebf 798e 26bf 1822 7b3f d151 303e
00000250: cbd2 203e ca26 69be b4a8 653d 770c 5ebe
00000260: ead3 e1be f623 00bf 32cc 9fbe c369 e2be
00000270: 6e41 ddbe 4423 75bd 0f76 3c3e c98b 32be
00000280: 103d 0cbe 7c1f 1bbe bd39 07bf 50ea b1be
00000290: 3645 6b3e f1aa 75be d7bf 0dbe a207 803d
000002a0: c94b 513e c0e6 8fbd 8cba 353d c80a dd3f
000002b0: 5e0e e6bf 2f5b 04c0 5c4d dfbf 59f4 03c0
000002c0: fcc8 f8bf 0ce9 edbf 38d2 edbf 2940 eebf
000002d0: 5809 aa3c 6320 e03f 456b ebbf dea5 e6bf
000002e0: 3493 0140 f896 f0bf a524 ebbf a0f5 dd3f
000002f0: 82a5 dcbf b51b 5f3e 2240 80bf 63ff 82bf
00000300: 31b7 83bf 84cc 89bf 3130 74bf eab9 37bf
00000310: 43e4 633e 94a4 413d 9412 2fbe e84d e9bc
00000320: 282f 4fbf b6a5 54bf 8138 60bf f1af 32bf
00000330: abe7 5b3f d892 0bbd e467 333d 4bdc 123e
00000340: 9371 623e 4f0f 58bf c1c5 82bf 07d8 6bbf
00000350: 8321 84bf 2052 47bf b972 34bf a0d7 fc3b
00000360: d000 11bd 2fbf 033e 3c29 40bd 791f 89bf
00000370: 6bbb 92bf ad98 88bf 4b4a 44bf 9dc6 8f3f
00000380: 76be d3bd ab48 4e3e f41b 58bd fc39 02bd
00000390: 6896 19bf 9c08 a8be fd3b e0be fcfd 72be
000003a0: caaa a2be f70d 303e 287b 36bd 3462 2abd
000003b0: c641 9bbd e899 b8bc aa1b 0bbf 3da6 cbbe
000003c0: 93e1 1d3f 0909 d8be 1a52 19be 983a 5bbd
000003d0: 1064 89bc d51b 473e 3c6d 57be 8b0b 4140
000003e0: 23fe 53c0 cdbe 3cc0 70a8 9cbd 7265 b7bd
000003f0: e0a6 ebbc 2cf8 11be d8fd f03c f802 c2bc
-0.04145606 -0.20851438 -0.20185328 0.119901285 0.06929307 -0.1728307 0.11002414 -0.1041251
-0.11784772 -0.01388523 0.06733979 -0.0017102361 0.07115774 0.019029409 0.13789316 -0.17891656
0.035297766 -0.10293059 0.087328926 -0.6855911 -0.74771094 -1.0436726 -1.0804474 -0.72606725
0.20983009 -0.1085713 -0.06975111 -0.10880954 -0.019445643 -0.68619406 -0.77685744 -0.64098126
0.9971384 0.090074494 -0.02207625 0.121944085 -0.21040101 0.06289388 -0.63077885 -0.60479337
-0.36951625 -0.52884936 -0.36838233 -0.13571748 0.18673186 -0.02628094 -0.042852893 -0.13873206
-0.24869657 -0.27814406 0.61447537 -0.5368719 0.17146502 0.07301147 -0.1948619 -0.17060393
-0.045762926 -0.55339414 -0.468031 -0.4092685 -0.42269233 -0.4294896 -0.025836334 -0.09483832
-0.010553122 -0.02233833 0.010481194 -0.3989028 -0.45165965 0.66153795 -0.29102293 -0.06373322
0.08659525 0.03765236 0.13206373 0.18827324 0.10582386 -0.77113456 -0.7294137 -0.38173565
-0.49145573 -0.043062136 0.014179096 0.035145 0.093799636 0.20856355 -0.81064385 -0.40912312
0.4391627 -0.7207838 -0.17384295 0.15986843 -0.13559672 0.13812323 0.059102073 -0.78109425
-0.5779888 -0.47109324 -0.51664096 -0.6119716 -0.09361301 -0.078509375 -0.22354674 -0.19559649
0.15974833 -0.74865955 -0.5043425 0.6851529 -0.72915834 0.016442627 0.10470416 0.17473559
-0.059580624 -0.22024158 -0.50813234 -0.37700778 -0.30714485 -0.30291432 -0.49703565 -0.15407676
-0.1555967 -0.06958757 -0.09049286 0.0401098 -0.45315176 -0.6107169 0.3070388 -0.40978038
0.2090488 -0.099041715 0.10291679 -0.075031385 -0.22195254 -0.9553329 -1.0484746 -0.96820587
-0.8276801 -0.69965804 0.21150787 0.076673165 -0.1125394 0.13779594 -0.11370136 -0.75364685
-0.62078375 -0.65061146 0.980989 0.1721871 0.15705411 -0.22768703 0.05606909 -0.21684442
-0.4410699 -0.5005487 -0.31210476 -0.44221315 -0.4321398 -0.059848085 0.18404411 -0.17436136
-0.13695168 -0.15148729 -0.52822477 -0.3474908 0.2297562 -0.2399099 -0.13842712 0.06251456
0.20439066 -0.07026434 0.044367358 1.7268915 -1.7973135 -2.0680654 -1.7445483 -2.0617888
-1.9436336 -1.8586745 -1.8579779 -1.861333 0.020756409 1.7509884 -1.8392111 -1.8019369
2.0246096 -1.8796072 -1.8370558 1.7340584 -1.7238009 0.21787913 -1.0019572 -1.0234188
-1.029028 -1.0765538 -0.95386034 -0.7176806 0.22255044 0.047276095 -0.1709693 -0.028479531
-0.8093133 -0.83065355 -0.8758622 -0.69799715 0.8590037 -0.034075588 0.04380025 0.14341848
0.22113638 -0.8439836 -1.02166 -0.92126507 -1.0322727 -0.7785969 -0.7048755 0.007716134
-0.035401165 0.128659 -0.046914324 -1.071273 -1.1463445 -1.0671593 -0.7667586 1.1232487
-0.10339062 0.20144908 -0.052761033 -0.03179358 -0.59995127 -0.32819068 -0.43795767 -0.237297
-0.31770927 0.17192827 -0.044551045 -0.04159756 -0.07580905 -0.022534326 -0.54339087 -0.39775267
0.61672324 -0.42194393 -0.14972726 -0.053522676 -0.016771346 0.19444211 -0.21037763 3.0163295
-3.3123863 -2.9491456 -0.076493144 -0.08954896 -0.028766096 -0.14254826 0.029417917 -0.023683056

linear1.bias f4 [256]
00000000: 7452 58be edb7 65bf 4a14 b0be 4e2a 8abe
00000010: ee1c 31bf beda 2dbf e5f1 10bf 8381 4cbf
00000020: 6b1b afbe 80d0 02c0 9746 57bf d58f 61bf
00000030: fc5e 91be d3ec 58c0 7966 643e 2d69 3ec0
00000040: 3778 80bf 3476 e9be 9cee 4ec0 1962 53bf
00000050: 00ce c4bf 6229 4fbe 6cc6 32bf d0b5 28bf
00000060: ef44 3abf 14f0 24c0 b868 8dbf 5ccd 81bf
00000070: 4cb9 71c0 c498 2dbf 934c 39c0 7299 50be
00000080: e235 13bf ccd5 48bf de20 d5bf 643d 21bf
00000090: 712b 18bf 2515 41c0 1a80 15bf 89ec 03bf
000000a0: 4135 3fc0 332b 1ebf d8c6 61bf 9da0 d9be
000000b0: 6f52 a0bf 9db4 7cbf 1b3f 35bf 58d7 47bf
000000c0: 3807 21bf 5715 25bf 1c60 16c0 a976 8abf
000000d0: ad0f 42be bb52 90bf a6ec 23bf ec9e 4fc0
000000e0: 9080 11c0 a2d8 19bf f447 c1bf 0c09 81be
000000f0: 3572 e6bf 2529 3abf 918b 35bf 390d 4bbf
00000100: 114c d4be 8d84 62bf edcf acbf eafe 04bf
00000110: a268 48c0 849d 49c0 f600 e2bf 85b5 8abe
00000120: c8f9 9fbf e0c5 dfbf 4e34 babe bb36 61c0
00000130: 593f 5cbf 3fdb 24c0 3655 b2bf bf36 53bf
00000140: 054e 0e3e 3734 4ec0 bb21 42c0 214b 41bf
00000150: a34a a3bf f82c 49c0 fc9f b7bf d525 96be
00000160: b84b 24bf e756 8bbe eef0 5ec0 7e11 53bf
00000170: ebef 91be 1cae 37c0 fba3 41bf 4f40 43c0
00000180: 453b f6be 7293 41c0 7b31 b8bf 92ce d1be
00000190: d777 39bf 0b86 59be 3a21 d5bf 5838 e9be
000001a0: 3167 ddbd 205a 14bf 0afe 57c0 ac30 2abf
000001b0: c0d3 c1bf 5cbc 80bf ba26 21bf e322 f9bf
000001c0: 89f0 61c0 82ab cbbe 3f9b 9bbf 130c f2be
000001d0: 02ee 48c0 2c00 0bbf fea8 4fbf b4d0 48c0
000001e0: d0a3 67bf f482 05bf 27c3 abbe 0513 14bf
000001f0: 894a 2cbf 0cae ffbe b098 91bf 5088 84bf
00000200: 13f0 41c0 a917 0abf 4ca5 69bf 6f23 47c0
00000210: da3e 06bf f9d8 96bf a431 48bf 10cb 1cbe
00000220: 0a4f 22bf 9367 8bbf 6d88 43bf d7dd 27be
00000230: f261 01bf 121b cbbe 3037 2cbf 1c05 82bd
00000240: 1293 7cbe a539 cdbe 091a e1be 7ed3 48c0
00000250: 989a cfbf 9d10 31c0 4b59 c2be c905 44bf
00000260: 4b60 47c0 7f02 2fbf e5b7 88be fe65 00c0
00000270: 0d33 16c0 f823 34bf f5e7 49bf e407 bfbe
00000280: 9ac3 a8bf 4b97 dabf aa91 21c0 f49f 44c0
00000290: 5cdc 3bbf e430 cdbf 8e5d 3cbf 72b5 44c0
000002a0: ac61 87bf 9888 e4be 81ae 2dbf b8ef e3be
000002b0: adc7 8fbf 2a65 43bf 32c2 8abe 5f48 3c3e
000002c0: 37f3 cebf 4393 bfbf 277a 7abe 7344 c7bf
000002d0: 0eaa 0cbf 2266 0ebf 767c edbf 30ae 28bf
000002e0: 078f 40bf bbce 00bf 5637 c93d dcc4 c5bf
000002f0: c1b0 06bf e48a 21bf 1e46 90bf 5289 79bf
00000300: 48a4 96bc 4eb3 58be e3cc 0dbf d78a 5abf
00000310: 5229 1ec0 29b9 2dbf dca3 44bf 9a2b f0be
00000320: 1e9a ccbe 8900 32bf 6553 44c0 94a2 c2bf
00000330: 612a 46c0 7fc0 fcbe 26f0 8cbf 8fe5 1cbf
00000340: 20f6 cbbe a2f3 99bf cfa2 25bf 6fa5 4abf
00000350: 1897 d2be 3135 23c0 ee59 2ebf ed54 b6be
00000360: 98ef f7be a8f3 58c0 bdbc 6dbf 3635 45c0
00000370: dc52 2ec0 efc3 99bf d1ae 42c0 a01e 59bf
00000380: b0d6 11bd 0dd6 01bf 7a92 6abf 1514 30bf
00000390: 8ec5 bbbe c16c 13bf cc55 fdbe d456 b5be
000003a0: 212a ebbf d2df 25bf 9b48 4cc0 eb0b 49bf
000003b0: e0e6 97be 0ad7 67bf 11c7 42c0 a682 02c0
000003c0: 6e63 08bf 26ee 0fbf 9760 85bf f223 edbe
000003d0: 42c8 92bd edfb 19bf 4ccc 61bf b79d 4cbf
000003e0: 82bd 1cbf 3bbd 10bf 39f0 57bf d0e2 b5bf
000003f0: 00dd 71be 730e 1ebf 2cd6 24bf 9492 43c0
-0.21125203 -0.89733773 -0.3439048 -0.269854 -0.6918477 -0.679119 -0.566191 -0.7988512
-0.34200606 -2.0439758 -0.84092087 -0.88110095 -0.2839278 -3.3894546 0.22304715 -2.9751694
-1.0036687 -0.45597994 -3.2333136 -0.8257156 -1.5375366 -0.2023063 -0.6983402 -0.65902424
-0.72761434 -2.5771532 -1.1047583 -1.0140796 -3.7769346 -0.67811227 -2.8952987 -0.20371035
-0.57504094 -0.7845123 -1.6650655 -0.629843 -0.59441286 -3.0169156 -0.5839859 -0.515328
-2.9876254 -0.61784667 -0.88194036 -0.4250535 -1.2525157 -0.98713094 -0.70799416 -0.78062963
-0.6290164 -0.64485687 -2.349616 -1.0817462 -0.18951292 -1.1275247 -0.6403297 -3.2440748
-2.2734718 -0.6009618 -1.5100083 -0.25202215 -1.8003603 -0.7271903 -0.70916086 -0.7931705
-0.41464284 -0.88483506 -1.3500954 -0.5195147 -3.1313863 -3.150239 -1.7656543 -0.27091613
-1.2498102 -1.7482262 -0.3636803 -3.5189655 -0.8603416 -2.5758817 -1.3932254 -0.8250541
0.1389695 -3.221937 -3.0333087 -0.7550526 -1.2757152 -3.1433697 -1.4345698 -0.2932574
-0.6417804 -0.2721474 -3.4834552 -0.82448566 -0.28503355 -2.8700018 -0.7564084 -3.0508
-0.48092094 -3.0246243 -1.43901 -0.40977913 -0.72448486 -0.2124254 -1.6650765 -0.455508
-0.10810698 -0.5795002 -3.3748803 -0.6648052 -1.5142746 -1.0057483 -0.6294972 -1.9463772
-3.530306 -0.39779288 -1.2156752 -0.47274837 -3.1395268 -0.5429714 -0.81117237 -3.1377382
-0.90484333 -0.52152944 -0.33547327 -0.5784152 -0.6730123 -0.49937475 -1.1374722 -1.0354099
-3.030278 -0.5394235 -0.9126785 -3.1115377 -0.52439654 -1.1784965 -0.78200746 -0.15311837
-0.63401854 -1.0890983 -0.76380044 -0.16393219 -0.5054008 -0.3966909 -0.6727171 -0.06348631
-0.24665478 -0.40083042 -0.43965176 -3.1379085 -1.6219053 -2.766639 -0.3795875 -0.7657133
-3.1152523 -0.68363184 -0.267028 -2.006225 -2.346866 -0.70367384 -0.78869563 -0.37310708
-1.3184693 -1.7077421 -2.5245156 -3.0722628 -0.73383117 -1.6030545 -0.73580253 -3.0735745
-1.0576682 -0.44635463 -0.67844397 -0.44518828 -1.1232811 -0.7632624 -0.27101284 0.18386982
-1.6167973 -1.4966816 -0.2446066 -1.5567764 -0.5494698 -0.5562459 -1.8553607 -0.6589079
-0.7521824 -0.50315446 0.098250076 -1.5450702 -0.52613455 -0.63102555 -1.1271398 -0.9747516
-0.018388882 -0.2116215 -0.5539076 -0.853681 -2.471272 -0.67860657 -0.7681253 -0.46908265
-0.39961332 -0.69532067 -3.06759 -1.5205865 -3.0963366 -0.49365613 -1.1010787 -0.6128778
-0.39836216 -1.2027476 -0.6470155 -0.7915868 -0.411309 -2.5501215 -0.6810597 -0.35611668
-0.48424983 -3.3898716 -0.92866117 -3.0813727 -2.7238073 -1.2012919 -3.04192 -0.84812355
-0.035605133 -0.5071724 -0.91629755 -0.6878064 -0.3667416 -0.5758782 -0.4947952 -0.35417807
-1.8372232 -0.6479465 -3.1919315 -0.7853381 -0.2966833 -0.905625 -3.0434 -2.0392241
-0.5327672 -0.5622276 -1.0420102 -0.46316487 -0.071671024 -0.60150033 -0.8820236 -0.79928154
-0.61226666 -0.5653874 -0.84350926 -1.4209843 -0.23619461 -0.617408 -0.643893 -3.0558214

linear2.weight f4 [4, 256]
00000000: 2050 713c 1218 4d3f e94a d8be be81 dfbe
00000010: 7083 5bbd 7b6d 173f b006 c7be 64b5 43bd
00000020: 1e17 c9be b05e 053c f1ae 64bf 5538 62bf
00000030: b3ac d7be ff41 4ac0 c4aa 403d 6922 3dc0
00000040: 9a7a 68bf 34cc cbbe b15b e3be 8099 c73c
00000050: d75b f3be 3201 363d e7cc 103f 300b eebe
00000060: 1a5f 20bd 942c 32bd cd5e 563e 96ca 493f
00000070: 0891 0d3f dc74 11bd 6c9c d5be d06b 753c
00000080: 44b3 1b3f f043 ffbb 8050 9c3a 6835 d5bf
00000090: 267a e4be b4f9 3740 0b8d 153f 6b06 e5be
000000a0: fe65 40c0 a840 153f 8419 20bd 13f7 f6be
000000b0: e191 e9be 3125 3c3e 61cf 183f 9441 eabe
000000c0: d806 c5be f04d 1cbd db90 aabf 511f 5dbf
000000d0: 6061 d7bb b081 babf 2a1e 723f f024 b9be
000000e0: f0ff 353f 6623 debe 2e00 793d 4d22 dabe
000000f0: 4c46 c4bc 3e96 0d3f b5e0 0c3f 09f2 123f
00000100: dc3c 0f3f 78c9 473c 60f9 45bb d4aa 123f
00000110: 1912 3fc0 d0e9 49c0 a412 46bd 9d62 d8be
00000120: 04f0 6abf d216 11bd 4a93 e2be 5f1a 163f
00000130: 4a9f ef3e fe9a 2d40 995e d3bf f68f 1d3f
00000140: 58ec 2d3c 40e7 7c3c 3932 ad3f 1ce2 703e
00000150: 00aa 01bd 83dd 2540 5c3d 0f3d 00e9 e3be
00000160: d2aa 0c3f 40d5 d6be 00ed cebe 868f 0d3f
00000170: 286d e9be 43b1 4840 4cd8 c23c 100c 3ec0
00000180: f3b5 0b3f 2d5e 3240 a4f5 b9bf 35d0 cdbe
00000190: 3bcf ffbd 4067 d13b d6e5 55bd f3b2 0a3f
000001a0: 3265 643d 00de d3be 1e90 efbf 6b65 163f
000001b0: 80be a13b 09c8 60bf 9697 5d3e a45e 4dbd
000001c0: ec48 c9bf cbd8 1f3f e4bf 3e3f ab69 d4be
000001d0: ac68 53bd 726f e8be 0c2a 203f 92c3 0c3d
000001e0: cfb0 63bf 69dc 0a3f 6467 d0be 209f 0ebc
000001f0: 18e2 1e3f 76d2 e4be c232 e73f badc b13d
00000200: 92a3 30bd 6394 0e3f 725c 47bf 7bef 49c0
00000210: 3f95 ccbe 945a 47bd 0bf1 133f 946e 30bd
00000220: 6fb1 d3be e3de 60bf 786e 283c a872 a0bc
00000230: 2149 e0be b517 f7be 1a25 0e3f be2c 0a3d
00000240: 794c cfbe 4043 b3bc 5ead 0e3f 90b0 31c0
00000250: 4a27 e0be 4c21 2040 160e 243f f803 123f
00000260: 0ade 2740 534e 1e3f ed75 f2be 5196 b9bf
00000270: 73c1 33c0 9741 0abf 1fab 163f 374c 0a3f
00000280: 8899 babf e25e 66c0 9fc8 bb3f f045 743c
00000290: a046 16bd d826 673c 842a 65bf d183 023f
000002a0: ee16 bdbf 70f4 cbbe 0539 d4be f2f7 e5be
000002b0: d2ed c0bf c4e3 1f3f 60e9 efbe b85c f33c
000002c0: 207f 38bc a0d0 fe3b 9e56 ccbe c05d df3c
000002d0: e988 e2be 2b1a 0c3f 9cd8 073d 9437 413e
000002e0: fc30 a43e d0e7 7f3c d6d0 6f3d 43f8 c7be
000002f0: 1065 643d 4520 ecbe 8378 bcbf 49e8 2f3e
00000300: 90f6 e4bb 98b9 333c 956c 0a3f 1cc5 a13e
00000310: 0097 c239 55bb efbe 0e8b 413d 907e e4be
00000320: 2d58 103f cdd1 0b3f b78a 47c0 df43 36c0
00000330: f088 4ac0 74cc cbbc fce7 8d3e d8cc dfbe
00000340: e74e ddbe 18aa 85bc e9c3 153f 8e17 0e3f
00000350: d427 0d3f 9868 09bd f09b ebbe 98b7 e7be
00000360: 138d fbbe 66a9 2fc0 4e1c 123d 1be4 a93f
00000370: 367b 7f3d 5797 04bf a85f 47c0 904b 65bc
00000380: 08e5 db3c 0d8b 153f 01b7 7cbf 4adf 113f
00000390: 7305 cebe d071 d4be 9e5f 0d3f bffb dabe
000003a0: 68ee 4bbd 81f5 0c3f 55d2 a73f ff8a bb3e
000003b0: c395 c9be b2ba 813e 3f79 4bc0 ac9a 7c3f
000003c0: 0f79 113f 62cf 123f 1036 0a3e ebae edbe
000003d0: dcf9 79bd 9d38 dbbe ad6e 92be c844 213f
000003e0: d45c 173f 0cc9 113f 2c11 3f3d c06b d63b
000003f0: 0786 e6be e09b bcbf 8d35 123f c8f4 3cc0
0.014728576 0.80114853 -0.42244652 -0.43653673 -0.053592145 0.5915143 -0.3887229 -0.04778041
-0.3927545 0.008140251 -0.8932944 -0.88367206 -0.42123947 -3.160278 0.047037855 -2.9552252
-0.90812075 -0.39804232 -0.44405892 0.024365187 -0.47531006 0.044434734 0.56562656 -0.4649291
-0.039153196 -0.043499544 0.20934601 0.78824747 0.55299425 -0.035511836 -0.41720903 0.014979318
0.6082041 -0.007790081 0.0011925846 -1.6656923 -0.44624442 2.8746157 0.5841834 -0.4473146
-3.006225 0.5830178 -0.039086834 -0.48235378 -0.4561911 0.18373562 0.59691435 -0.45753157
-0.38481784 -0.038160264 -1.3325456 -0.8637591 -0.0065728873 -1.4570827 0.94577277 -0.36160994
0.71093655 -0.43386382 0.060791187 -0.42604294 -0.023959301 0.55307376 0.55030376 0.57400566
0.5595224 0.01219403 -0.0030208454 0.57291913 -2.9854796 -3.1548958 -0.04835762 -0.42262736
-0.91772485 -0.035422154 -0.44252998 0.5863399 0.46801215 2.712585 -1.6513244 0.6154779
0.010615431 0.015435994 1.3530952 0.23523754 -0.031656265 2.591645 0.034970626 -0.44513702
0.5494815 -0.41959572 -0.40415192 0.55297124 -0.45591092 3.1358192 0.023784779 -2.9694862
0.5457451 2.786998 -1.4528089 -0.40197912 -0.12490698 0.006390482 -0.05222114 0.54179305
0.05576057 -0.4138031 -1.8715856 0.587485 0.0049360394 -0.8780523 0.21639857 -0.050139084
-1.5725379 0.62440175 0.7451155 -0.41486868 -0.051613495 -0.45397526 0.6256416 0.034366198
-0.88941664 0.5424257 -0.4070388 -0.008704931 0.6206374 -0.4469182 1.8062365 0.086846784
-0.043124743 0.5569517 -0.77875435 -3.1552417 -0.39957616 -0.048670366 0.5778968 -0.043074206
-0.4134631 -0.878401 0.010280244 -0.019585922 -0.43805793 -0.48260275 0.5552536 0.033734076
-0.40488032 -0.021882653 0.5573329 -2.7764015 -0.43779975 2.5020323 0.64083993 0.57037306
2.6229272 0.61838263 -0.47355595 -1.4498998 -2.8086822 -0.5400633 0.5885486 0.54022545
-1.4578104 -3.5995412 1.46706 0.0149092525 -0.036688447 0.014108382 -0.89518 0.50982386
-1.4772623 -0.3983493 -0.41449752 -0.4491573 -1.5072577 0.6245692 -0.46857738 0.029707298
-0.011260778 0.007776335 -0.39909834 0.027266383 -0.4424508 0.5472743 0.03316556 0.18868858
0.32068622 0.015619233 0.05854877 -0.39056596 0.055760443 -0.4611837 -1.4724277 0.17178454
-0.0069874004 0.010969542 0.54071933 0.31595695 0.00037115067 -0.4682261 0.047251754 -0.4462781
0.56384546 0.54617006 -3.1178415 -2.8478925 -3.164608 -0.024877764 0.27716053 -0.4371097
-0.4322426 -0.016316459 0.5850206 0.5550469 0.551389 -0.033547014 -0.46017408 -0.45257258
-0.4913107 -2.7447143 0.035671525 1.3272737 0.062373362 -0.51793426 -3.1152134 -0.013995066
0.026842609 0.584153 -0.9871674 0.5698134 -0.40238532 -0.41493082 0.55224025 -0.42770192
-0.04978791 0.5506211 1.3111063 0.36629483 -0.39372072 0.2533775 -3.1792753 0.9867351
0.56825346 0.5734769 0.13497186 -0.46422514 -0.0610293 -0.4281663 -0.28600064 0.62995577
0.5912602 0.569474 0.046647236 0.0065436065 -0.4502413 -1.4735069 0.5711296 -2.9524403

linear2.bias f4 [4]
00000000: 992a b3c0 e1ed bcc0 800d bbc0 4b0a b7c0
-5.59895 -5.904038 -5.845398 -5.7200065
