models/model.pth (torch, 17811 bytes, 4 tensors)

linear1.weight f4 [256, 11]
-0.14608522 0.03892367 -0.23083174 -0.22139801 -0.105095804 -0.07987364 0.07853811 0.0074662454
-0.15777235 -0.30982012 -0.3405309 -0.13432755 -0.10690852 0.047427718 -0.13411254 0.076287866
-0.17857414 0.002256932 0.023933146 -0.2936921 0.009384616 -0.16815712 0.22630201 -0.12577966
-0.22647026 -0.38770354 -0.046322454 -0.008933302 -0.03328522 0.030527852 -0.06401663 -0.20936486
-0.21068227 0.1624065 -0.47786376 0.08888298 -0.21899293 -0.1059492 0.0074688294 0.061128035
0.013377063 0.15260807 -0.36296743 -0.05239498 0.28911802 -0.16557379 -0.43206123 0.017968092
0.021162564 0.03578107 0.2688124 -0.09958629 -0.2521029 -0.37817144 0.04491058 0.1647886
-0.0520402 -0.17750493 -0.06313652 -0.18111385 0.054023337 -0.042909697 -0.046275083 -0.15929209
-0.16253053 -0.025275333 -0.0475832 -0.051247176 -0.040434647 -0.244454 -0.04615117 -0.18611358
0.14374518 -0.106314 -0.29312104 0.16349414 0.02525044 0.20345987 0.07623392 0.10764611
-0.1269142 -0.18718536 -0.2853624 -0.35649997 0.075613804 -0.30782247 -0.17342995 0.054665413
0.15897727 0.16807918 -0.027977243 -0.18363284 -0.144361 -0.21255067 -0.28111988 -0.11546329
-0.08842036 -0.061911847 0.11198961 -0.14312278 -0.16850615 0.07043816 -0.45018634 -0.22974168
0.091891 -0.32961679 0.13986461 -0.24147251 -0.28733 -0.3245587 -0.016898958 -0.16901055
-0.08094383 -0.253935 -0.06801993 -0.05033549 -0.30075186 0.23704441 -0.072402015 -0.32493204
0.22916166 -0.107692674 -0.24700521 0.06582664 0.11024752 0.09496124 -0.40452692 -0.12301262
-0.2846077 -0.04165466 -0.35954043 -0.08025006 -0.059798658 -0.20534536 -0.22562808 -0.077141196
-0.1387155 0.06965774 -0.12236071 -0.2504948 0.0397577 -0.15087332 -0.18200807 -0.15913963
-0.26757303 0.050138544 -0.26086432 0.017351732 0.03740515 -0.400751 -0.052498292 0.017587315
-0.10046217 -0.2512774 -0.0027824617 -0.17254853 0.2037281 -0.18210402 -0.15174775 -0.1788794
0.0016762973 -0.18477511 -0.17088386 -0.31342316 0.17409444 0.03839827 0.048951935 -0.3523677
-0.25908312 0.14326803 -0.40441906 0.040982343 -0.33239442 0.1521269 -0.22091521 0.14958078
-0.038015038 -0.007201111 -0.015300129 -0.3292373 0.121696286 -0.15456852 0.05529211 -0.057601117
-0.12760392 -0.24709864 -0.25259745 -0.048132416 -0.33164188 -0.24517019 -0.029437205 -0.10360328
-0.18123741 -0.16529357 0.04427158 -0.27752116 0.038417738 0.02093651 -0.21833163 0.088524744
-0.12835327 -0.06471326 -0.20257744 0.031571347 -0.03283506 -0.09178473 -0.20968117 -0.31622735
0.18399434 -0.14393893 0.086220324 -0.33620772 -0.109636486 -0.06080501 -0.11208629 -0.3804095
0.027580734 0.03249481 -0.24097897 -0.1390859 0.1285248 0.19125687 -0.32375866 -0.21819673
0.0008290789 -0.2258518 0.19068432 -0.15304583 -0.049695402 -0.09401062 0.007621047 0.08379749
-0.05595377 -0.24303977 -0.054591015 0.13191412 -0.14216897 -0.06477128 0.14452901 -0.10993085
-0.3178842 -0.23574936 -0.04557858 -0.073360935 0.09610004 0.018516928 -0.27619976 -0.35113817
-0.2298211 -0.0037411887 0.12111959 -0.28624707 -0.10909953 0.21305257 0.09130214 0.12685129
00000000: 5d97 15be 6d6e 1f3d 285f 6cbe 29b6 62be
00000010: 783c d7bd ca94 a3bd 97d8 a03d 68a7 f43b
00000020: 138f 21be bea0 9ebe 115a aebe 298d 09be
00000030: dbf2 dabd 9143 423d cc54 09be d03c 9c3d
00000040: 24dc 36be 09e9 133b 720f c43c d05e 96be
00000050: efc1 193c 6131 2cbe b7bb 673e 62cc 00be
00000060: d2e7 67be 1481 c6be 9dbc 3dbd fc5c 12bc
00000070: 1556 08bd 8c15 fa3c 271b 83bd be63 56be
00000080: 18bd 57be e44d 263e 8faa f4be 4808 b63d
00000090: af3f 60be e5fb d8bd 15bd f43b 6461 7a3d
000000a0: 782b 5b3c 4a45 1c3e ded6 b9be 1e9c 56bd
000000b0: 4707 943e 2d8c 29be 2137 ddbe d231 933c
000000c0: 1d5d ad3c 2c8f 123d c7a1 893e e6f3 cbbd
000000d0: a213 81be b09f c1be 28f4 373d 58be 283e
000000e0: 1b28 55bd dac3 35be b84d 81bd e975 39be
000000f0: 9347 5d3d 14c2 2fbd f18a 3dbd 771d 23be
00000100: 676e 26be 370e cfbc 9ae6 42bd 8fe8 51bd
00000110: cd9e 25bd 2652 7abe 0209 3dbd 8f94 3ebe
00000120: f031 133e 28bb d9bd f613 96be 026b 273e
00000130: 03da ce3c c957 503e 8820 9c3d 9075 dc3d
00000140: ccf5 01be 85ad 3fbe 051b 92be 2a87 b6be
00000150: 69db 9a3d e89a 9dbe 9f97 31be d7e8 5f3d
00000160: f0ca 223e f31c 2c3e 8830 e5bc 3f0a 3cbe
00000170: 5fd3 13be e2a6 59be f2ee 8fbe 0478 ecbd
00000180: bc15 b5bd 4797 7dbd cf5a e53d c78e 12be
00000190: e08c 2cbe e241 903d d37e e6be 6741 6bbe
000001a0: 5931 bc3d 88c3 a8be ab38 0f3e 9244 77be
000001b0: eb1c 93be 8f2c a6be af6f 8abc 1a11 2dbe
000001c0: e1c5 a5bd c503 82be 084e 8bbd 962c 4ebd
000001d0: 26fc 99be c5bb 723e 8247 94bd 7e5d a6be
000001e0: 5ba9 6a3e fa8d dcbd efee 7cbe 1ed0 863d
000001f0: 74c9 e13d 0a7b c23d 271e cfbe 0aee fbbd
00000200: 1ab8 91be 149e 2abd af15 b8be 255a a4bd
00000210: 70ef 74bd 0e46 52be 0c0b 67be 34fc 9dbd
00000220: 700b 0ebe b8a8 8e3d 4098 fabd db40 80be
00000230: f8d8 223d 897e 1abe 5360 3abe 80f5 22be
00000240: 55ff 88be 135e 4d3d 0290 85be 3825 8e3c
00000250: 2436 193d 3c2f cdbe 7308 57bd 4613 903c
00000260: 1cbf cdbd 6ea7 80be f659 36bb 90b0 30be
00000270: 199e 503e 7a79 3abe c363 1bbe 292c 37be
00000280: 34b7 db3a b035 3dbe 2efc 2ebe 0079 a0be
00000290: d045 323e 8147 1d3d d381 483d 8a69 b4be
000002a0: 8ba6 84be dbb4 123e 0410 cfbe 1add 273d
000002b0: 9a2f aabe 27c7 1b3e 9937 62be b42b 193e
000002c0: a8b5 1bbd 4cf7 ebbb 64ad 7abc cb91 a8be
000002d0: e73b f93d 3647 1ebe fb79 623d 26ef 6bbd
000002e0: 9aaa 02be 6d07 7dbe 7454 81be 7f26 45bd
000002f0: f7cc a9be e50d 7bbe 4b26 f1bc f52d d4bd
00000300: 4d96 39be b842 29be 1e56 353d 4117 8ebe
00000310: eb5b 1d3d 0b83 ab3c 5492 5fbe 764c b53d
00000320: 0a6f 03be 6388 84bd 7670 4fbe f550 013d
00000330: 0e7e 06bd a2f9 bbbd a9b6 56be 8de8 a1be
00000340: 0369 3c3e ba64 13be 4894 b03d 6b23 acbe
00000350: 1889 e0bd ad0e 79bd 7f8d e5bd 09c5 c2be
00000360: fef0 e13c 4719 053d 31c3 76be 896c 0ebe
00000370: 019c 033e d7d8 433e b2c3 a5be f76e 5fbe
00000380: 8b56 593a b245 67be c042 433e 0cb8 1cbe
00000390: 688d 4bbd a488 c0bd fab9 f93b 059e ab3d
000003a0: c82f 65bd 6bdf 78be d49a 5fbd 7f14 073e
000003b0: be94 11be cea6 84bd 6aff 133e 6d23 e1bd
000003c0: b8c1 a2be 4868 71be 9bb0 3abd 423e 96bd
000003d0: 19d0 c43d d0b0 973c 0e6a 8dbe 62c8 b3be
000003e0: 3956 6bbe bb2e 75bb 8c0d f83d fa8e 92be
000003f0: 936f dfbd 742a 5a3e 9efc ba3d 4ee5 013e

linear1.bias f4 [256]
-0.17543656 -0.18082288 -0.053152338 0.104868926 -0.4413454 -0.4457679 0.16147506 -0.43154696
-0.018845119 -0.14012723 -0.07769013 -0.4192304 0.228001 -0.40217286 -0.15593834 0.01895712
-0.3271515 0.021224149 -0.16105792 -0.2557577 -0.061862025 -0.35098293 0.04106035 0.07424452
-0.0021565522 0.18673125 -0.24540171 -0.18322887 -0.19687414 -0.18278177 -0.2600698 -0.23494959
-0.2515906 -0.4168417 0.109558016 -0.34830722 -0.27180898 0.12934841 -0.107930236 0.12442509
-0.17126994 -0.3483192 0.10031264 -0.016731367 -0.13850226 0.039908964 -0.27510637 -0.2685994
-0.14355831 -0.1844736 -0.32835266 -0.12820533 -0.038357366 0.015840314 -0.1855865 -0.45662555
0.12481813 -0.30373642 0.18968643 0.000273387 -0.11087532 -0.036651507 -0.35408306 -0.31726584
-0.46958867 -0.33931878 -0.16464858 -0.22714897 -0.014995098 0.11082507 -0.1376587 -0.3662394
-0.20499112 0.14556557 -0.1653839 -0.29509714 0.11810661 -0.13934541 -0.40358305 -0.046883233
-0.09200995 -0.25867644 0.2390405 -0.3017098 -0.22277816 -0.2528008 -0.042809434 0.18392281
-0.02552423 -0.2982438 -0.0972412 0.119648404 -0.16634391 0.07284727 -0.15827782 -0.059274103
0.08887635 0.09875781 -0.45769516 -0.3217527 0.10383614 -0.08937972 -0.028957995 -0.021372173
-0.41763803 -0.025121925 -0.24176377 -0.18257967 -0.25993666 -0.14769869 -0.30468172 -0.14881514
-0.080013454 -0.38110745 -0.38950172 -0.26896048 -0.43595988 -0.28433505 -0.0025879932 -0.34512702
-0.049135644 -0.30121097 -0.052938778 -0.22627708 -0.3356215 -0.09205199 -0.10740301 0.18032296
-0.055754855 -0.11401777 -0.28210783 -0.04882324 -0.3567139 -0.17675981 -0.18524244 -0.14013502
0.019886216 0.12295584 0.009833431 0.13774456 -0.021530833 -0.24924527 -0.18827674 -0.055183817
-0.17457941 -0.42545927 0.17673121 -0.31568828 -0.49601373 0.12960266 -0.38149458 -0.13159938
-0.14578748 0.24441537 -0.19165966 -0.31950718 0.10185955 -0.2727304 -0.2148564 -0.49182984
-0.48717964 0.19094543 -0.37044767 -0.51483524 -0.21679239 0.045962043 0.1482704 0.11547518
-0.26618636 -0.35548645 0.051306095 -0.2365698 -0.31710187 -0.27942008 0.06732666 -0.3402294
-0.12884524 -0.33741367 -0.009708314 -0.39849347 -0.029670822 -0.23023668 -0.27401522 0.010342537
-0.4322376 0.2695597 -0.40377048 -0.09096285 -0.22175917 0.11959355 -0.21725406 -0.399267
-0.27211383 -0.0024360903 -0.17964248 0.06870855 -0.19961725 -0.3074014 -0.18739243 -0.1538043
-0.20249344 -0.051897828 -0.337133 -0.34149027 -0.13223013 0.103551835 0.17844957 -0.4737026
-0.050063584 -0.17489198 -0.06256592 -0.17045227 -0.07334952 -0.08594941 -0.26343066 -0.40115407
-0.13447005 -0.109799474 0.026269697 -0.47889072 -0.057319414 -0.10617913 -0.030832337 -0.24350908
-0.13401884 -0.23935488 0.07240193 -0.057423793 0.05209184 0.16021185 -0.52147555 0.15325002
-0.27203214 -0.44208166 -0.38463947 -0.3372374 0.0500133 -0.33851594 -0.0018745355 -0.12914155
-0.3895996 -0.02208926 -0.39049405 -0.24401066 -0.15483272 0.08674568 -0.22225825 -0.26500025
0.113587424 -0.2862907 -0.3980512 -0.22892512 -0.22928002 0.007282987 -0.32420424 0.14948869
00000000: a4a5 33be a229 39be 44b6 59bd 85c5 d63d
00000010: 06f8 e1be b13b e4be b859 253e b9f3 dcbe
00000020: 1461 9abc 837d 0fbe 011c 9fbd 5ea5 d6be
00000030: 1879 693e 9ae9 cdbe 4dae 1fbe f64b 9b3c
00000040: 6780 a7be 44de ad3c 5eec 24be acf2 82be
00000050: 0963 7dbd 09b4 b3be e62e 283d 830d 983d
00000060: f154 0dbb 7a36 3f3e 964a 7bbe 59a0 3bbe
00000070: 6099 49be 252b 3bbe de27 85be a096 70be
00000080: 7cd0 80be 466c d5be f45f e03d 5355 b2be
00000090: 8c2a 8bbe e973 043e 870a ddbd 95d2 fe3d
000000a0: 6361 2fbe e556 b2be b770 cd3d 3810 89bc
000000b0: 89d3 0dbe 9577 233d beda 8cbe dc85 89be
000000c0: f300 13be a6e6 3cbe d71d a8be 4248 03be
000000d0: 9d1c 1dbd 8cc3 813c 630a 3ebe d3ca e9be
000000e0: a6a0 ff3d 5783 9bbe 293d 423e 6255 8f39
000000f0: 9a12 e3bd e41f 16bd 604a b5be ab70 a2be
00000100: ed6d f0be 31bb adbe a399 28be bd99 68be
00000110: 00ae 75bc 41f8 e23d 67f6 0cbe bb83 bbbe
00000120: 31e9 51be 240f 153e 665a 29be f916 97be
00000130: e1e1 f13d 90b0 0ebe 70a2 cebe a208 40bd
00000140: b66f bcbd 3d71 84be 08c7 743e b579 9abe
00000150: f51f 64be 1b6f 81be f258 2fbd 4356 3c3e
00000160: 3118 d1bc 69b3 98be 6526 c7bd 390a f53d
00000170: 0f56 2abe f330 953d 9513 22be 67c9 72bd
00000180: ce04 b63d 8941 ca3d 0557 eabe c5bc a4be
00000190: 0ba8 d43d b70c b7bd 5139 edbc b214 afbc
000001a0: a7d4 d5be 7fcc cdbc ec90 77be 2af6 3abe
000001b0: 6b16 85be 533e 17be 3eff 9bbe ff62 18be
000001c0: 18de a3bd 8420 c3be c56c c7be 30b5 89be
000001d0: 2236 dfbe 5d94 91be 529b 29bb 7db4 b0be
000001e0: 7542 49bd 5338 9abe 55d6 58bd 2eb5 67be
000001f0: 95d6 abbe c185 bcbd 1cf6 dbbd 95a6 383e
00000200: 345f 64bd 2682 e9bd 7070 90be e1fa 47bd
00000210: 34a3 b6be 8600 35be 32b0 3dbe 8e7f 0fbe
00000220: 6be8 a23c 45d0 fb3d 661c 213c e90c 0d3e
00000230: 6e61 b0bc 273a 7fbe 9ecb 40be 6d08 62bd
00000240: f2c4 32be ccd5 d9be 07f9 343e e5a1 a1be
00000250: 83f5 fdbe 8fb6 043e 4253 c3be fdc1 06be
00000260: 5049 15be 0648 7a3e 6e42 44be 7296 a3be
00000270: bd9b d03d 52a3 8bbe 5103 5cbe 1fd1 fbbe
00000280: 9c6f f9be 3387 433e 51ab bdbe 3ecc 03bf
00000290: d3fe 5dbe b242 3c3d 32d4 173e 407e ec3d
000002a0: 9449 88be 5202 b6be 5726 523d 5b3f 72be
000002b0: 2d5b a2be 2610 8fbe 8fe2 893d 8c32 aebe
000002c0: 02f0 03be 7cc1 acbe 9f0f 1fbc 5607 ccbe
000002d0: 3910 f3bc 2ac3 6bbe b94b 8cbe bf73 293c
000002e0: 3f4e ddbe bb03 8a3e 01bb cebe bb4a babd
000002f0: d614 63be 77ed f43d d977 5ebe b96c ccbe
00000300: 8152 8bbe d0a6 1fbb 33f4 37be 11b7 8c3d
00000310: 7768 4cbe b763 9dbe cde3 3fbe e07e 1dbe
00000320: 715a 4fbe d192 54bd b29c acbe d0d7 aebe
00000330: 5667 07be fc12 d43d 7cbb 363e 2689 f2be
00000340: 790f 4dbd e216 33be 9022 80bd 0a8b 2ebe
00000350: 4638 96bd 3f06 b0bd 62e0 86be 1164 cdbe
00000360: 84b2 09be 8cde e0bd 8c33 d73c 2a31 f5be
00000370: c3c7 6abd 7274 d9bd 1994 fcbc 725a 79be
00000380: 3c3c 09be 7219 75be 7747 943d 3635 6bbd
00000390: 415e 553d 930e 243e 6c7f 05bf 93ed 1c3e
000003a0: cc47 8bbe 8758 e2be 77ef c4be 61aa acbe
000003b0: bfda 4c3d f651 adbe f9b2 f5ba af3d 04be
000003c0: 9979 c7be 89f4 b4bc d6ee c7be eedd 79be
000003d0: 788c 1ebe b8a7 b13d ab97 63be 1dae 87be
000003e0: 86a0 e83d b294 92be 5ecd cbbe 596b 6abe
000003f0: 62c8 6abe 1fa6 ee3b 19fe a5be 9013 193e

linear2.weight f4 [4, 256]
0.0007958018 0.008087805 -0.026970902 0.0655835 -0.020231714 -0.034001503 -0.052973907 -0.0065047746
0.008378064 0.032467593 -0.05371797 -0.04975528 0.030016385 -0.021000799 -0.002575413 -0.04219797
0.004309764 0.0021453188 -0.06831407 -0.019366803 0.020000948 0.013467654 -0.010801161 -0.0061152913
-0.00087195256 -0.004300435 0.007888826 0.023968311 0.0050680293 -0.0038174898 -0.033007603 -0.022680536
-0.021329312 -0.013675438 -0.024056492 0.010850865 0.021890908 -0.014781286 0.00399531 0.035653815
-0.08113386 -0.051110424 -0.08282671 -0.018045159 -0.02990119 0.013125944 -0.011129628 0.013651211
0.029497921 -0.01519251 -0.021419562 -0.01452509 -0.055998243 -0.046132773 -0.030120572 -0.025977094
-0.05358105 0.020775486 -0.023423053 -0.060710218 0.022645734 -0.0032577289 0.027046403 -0.0031640683
0.0008076126 0.01831707 0.004208627 -0.036842264 -0.048584215 -0.023755396 0.031434014 -0.0026859194
-0.01292412 -0.011690088 -0.04680387 0.044168394 0.030777168 0.005838593 -0.013714481 -0.00072816917
-0.023405794 -0.009549886 0.024482999 -0.08900668 0.00707736 -0.0253515 -0.024718614 0.033656955
-0.0146547 -0.0031144195 0.054649636 -0.010007272 -0.015470969 0.0117821535 -0.09165456 0.013533841
-0.0061470987 0.00090358424 -0.021409541 -0.026640309 -0.05074851 -0.030831775 0.032258343 0.016077075
-0.0056882235 0.005344819 0.023184124 0.002849396 0.04562524 -0.027245477 0.037838202 0.05951599
-0.02137972 -0.0202328 -0.009110364 -0.029078886 -0.025789028 -0.054957062 -0.026200226 -0.025853485
-0.040331725 0.006520773 0.023776328 -0.053715207 0.0138579365 -0.026531596 -0.0074940315 0.00032888283
-0.054285318 0.016565174 0.014774855 -0.03215732 -0.006833575 -0.01950663 -0.045216057 -0.070905834
-0.01806454 0.01694437 -0.02196562 -0.02454085 0.029010639 0.022349162 -0.016263554 -0.009923143
0.034935206 0.011903715 -0.030339964 -0.037353832 -0.062014896 -0.0065080365 0.02048381 0.03421387
-0.025204154 -0.023047175 0.041631088 -0.028465958 0.019052032 -0.008027293 0.0033768353 0.009058566
-0.043355186 -0.031656142 -0.011808813 -0.022202818 -0.016522665 0.028690156 0.0087430375 -0.0043972176
-0.019407703 0.02553345 0.030571349 -0.033644103 -0.070116416 -0.010466715 0.04248986 0.04955706
-0.024254553 -0.052365504 0.000101151556 -0.035238016 0.005393277 0.0020407864 -0.016722841 -0.034132663
0.0044493317 0.08941604 -0.036126375 -0.005366815 -0.0128340395 0.015111455 -0.028329285 0.01048865
-0.021363618 0.010911805 -0.046842873 -0.01987482 -0.017421274 -0.021664193 -0.047339007 -0.008646948
0.004704592 -0.06955552 0.014036067 -0.01819049 0.01613921 0.018874446 -0.030680956 -0.017904269
-0.05656817 0.021136392 0.0009082989 -0.05444236 -0.022634182 0.024893511 -0.03429885 0.00093984103
-0.040569395 0.015056841 0.0032014474 0.0031342062 0.0014961642 -0.03232241 0.021777032 -0.085816614
-0.042883743 -0.04328586 0.015822953 0.007630371 -0.03958901 0.049269475 0.0001996915 -0.045749396
0.0030300347 -0.009946201 -0.037480213 0.008730054 -0.033698894 -0.009155709 0.028925523 0.01744076
0.022962207 0.0053558447 -0.00653591 -0.07434032 0.017839313 -0.046611544 -0.015690923 -0.020717025
-0.0267435 -0.026747055 0.025815494 0.004032484 -0.029196274 -0.0053288233 -0.008638241 0.003202966
00000000: 5b9d 503a b682 043c 15f2 dcbc a450 863d
00000010: fbbc a5bc 2945 0bbd 2bfb 58bd 0126 d5bb
00000020: 2644 093c bdfc 043d 6007 5cbd 31cc 4bbd
00000030: ece4 f53c de09 acbc 43c8 28bb c7d7 2cbd
00000040: ec38 8d3b 7a98 0c3b 3fe8 8bbd 21a7 9ebc
00000050: 07d9 a33c 6fa7 5c3c 5af7 30bc c862 c8bb
00000060: bf93 64ba aaea 8cbb 2240 013c 3159 c43c
00000070: b611 a63b da2e 7abb fb32 07bd 88cc b9bc
00000080: cfba aebc f20e 60bc 1f12 c5bc d4c7 313c
00000090: 9054 b33c 352d 72bc 17eb 823b bc09 123d
000000a0: 8229 a6bd 2a59 51bd 0da1 a9bd 71d3 93bc
000000b0: 57f3 f4bc 330e 573c 0b59 36bc 54a9 5f3c
000000c0: a0a5 f13c 01ea 78bc 1478 afbc a5fa 6dbc
000000d0: 6a5e 65bd b8f5 3cbd 6bbf f6bc eacd d4bc
000000e0: ce77 5bbd 5a31 aa3c b4e1 bfbc 47ab 78bd
000000f0: 8c83 b93c 9f7f 55bb 6b90 dd3c 425c 4fbb
00000100: f7b5 533a ae0d 963c 86e8 893b eae7 16bd
00000110: 3e00 47bd ad9a c2bc f4c0 003d 4006 30bb
00000120: b0bf 53bc c887 3fbc 6ab5 3fbd ebe9 343d
00000130: 6620 fc3c ab51 bf3b b4b2 60bc 9be2 3eba
00000140: 82bd bfbc 2077 1cbc 9290 c83c 2249 b6bd
00000150: 33e9 e73b f3ad cfbc b17e cabc e0db 093d
00000160: 441a 70bc 4a1b 4cbb 4cd8 5f3d 8af5 23bc
00000170: f279 7dbc ef09 413c 63b5 bbbd 0bbd 5d3c
00000180: 9a6d c9bb 83de 6c3a 1063 afbc c73c dabc
00000190: abdd 4fbd eb92 fcbc 5321 043d 12b4 833c
000001a0: 4764 babb 9723 af3b a2ec bd3c efbc 3a3b
000001b0: 88e1 3a3d e831 dfbc 3bfc 1a3d 0ac7 733d
000001c0: 8624 afbc 42bf a5bc a343 15bc d836 eebc
000001d0: 8343 d3bc a81a 61bd dba1 d6bc b0ca d3bc
000001e0: e132 25bd 35ac d53b 93c6 c23c 7a04 5cbd
000001f0: 660c 633c ca58 d9bc 7e90 f5bb e86d ac39
00000200: 485a 5ebd b0b3 873c 3c12 723c 65b7 03bd
00000210: 2fec dfbb 5ecc 9fbc 7934 39bd 1437 91bd
00000220: 16fc 93bc ebce 8a3c 3ef1 b3bc e509 c9bc
00000230: b8a7 ed3c 9715 b73c 253b 85bc ae94 22bc
00000240: 3818 0f3d cd07 433c 848b f8bc 5500 19bd
00000250: 5503 7ebd 5e41 d5bb aacd a73c d823 0c3d
00000260: f178 cebc 6ecd bcbc 5c85 2a3d 7131 e9bc
00000270: 0213 9c3c e884 03bc e54d 5d3b 616a 143c
00000280: 3595 31bd dfa9 01bd c079 41bc afe2 b5bc
00000290: 8a5a 87bc 9e07 eb3c f53e 0f3c 8916 90bb
000002a0: e7fc 9ebc 872b d13c c470 fa3c 66ce 09bd
000002b0: 3299 8fbd 967c 2bbc d909 2e3d 58fc 4a3d
000002c0: 7cb1 c6bc 367d 56bd 5421 d438 bd55 10bd
000002d0: 16ba b03b b7be 053b 57fe 88bc b1ce 0bbd
000002e0: b3cb 913b c21f b73d 40f9 13bd 1bdc afbb
000002f0: dd45 52bc 0996 773c d112 e8bc 96d8 2b3c
00000300: c102 afbc 6dc7 323c 50de 3fbd 85d0 a2bc
00000310: 0fb7 8ebc 1b79 b1bc 8ce6 41bd eeab 0dbc
00000320: fa28 9a3b 2073 8ebd 88f7 653c 3904 95bc
00000330: 6036 843c 959e 9a3c a156 fbbc f9ab 92bc
00000340: 07b4 67bd 3a26 ad3c e81a 6e3a f4fe 5ebd
00000350: 526b b9bc 7aed cb3c f37c 0cbd aa5f 763a
00000360: 182c 26bd f8b0 763c 60cf 513b 4167 4d3b
00000370: f11a c43a 8164 04bd bf65 b23c 9fc0 afbd
00000380: dda6 2fbd 844c 31bd 239f 813c 3108 fa3b
00000390: 1628 22bd cace 493d 4764 5139 b863 3bbd
000003a0: 8c93 463b 64f5 22bc da84 19bd 8008 0f3c
000003b0: da07 0abd d401 16bc 38f5 ec3c eddf 8e3c
000003c0: 3d1b bc3c 1580 af3b 302b d6bb bd3f 98bd
000003d0: c023 923c bfeb 3ebd 408a 80bc c0b6 a9bc
000003e0: 2f15 dbbc a41c dbbc 047b d33c ed22 843b
000003f0: 062d efbc 699d aebb 6987 0dbc dae8 513b

linear2.bias f4 [4]
-3.6776457 -3.7272263 -3.5744357 -3.6388283
00000000: 8c5e 6bc0 e08a 6ec0 8ec3 64c0 90e2 68c0
