models/model1.pth (torch, 15769 bytes, 4 tensors)

linear1.weight f4 [256, 9]
0	0xbfedb3c8	-1.857049
1	0xc0760f63	-3.8446891
2	0xc05d7872	-3.4604764
3	0xc044eb4a	-3.076861
4	0xc048deb5	-3.138593
5	0x40123644	2.284562
6	0xbff2ded2	-1.8974249
7	0xc02b55c7	-2.6771104
8	0xc0462132	-3.095776
9	0x40236436	2.5529914
10	0xc05fb19c	-3.4952154
11	0xc0730d6b	-3.797694
12	0xbec417ca	-0.382994
13	0xbf6be8d7	-0.9215216
14	0xc01983be	-2.398666
15	0x4013ef6c	2.3114882
16	0xbf1b1eb8	-0.6059375
17	0x3e8ed0cd	0.27893677
18	0xbf8370b4	-1.0268769
19	0xc0518300	-3.2736206
20	0xc05a78af	-3.413616
21	0xbef1a369	-0.47194985
22	0xbcdb1ab3	-0.02674613
23	0xc03bb6a3	-2.9330223
24	0xc007c1ce	-2.121204
25	0xbe6da6c9	-0.23208155
26	0xbedf9c98	-0.4367416
27	0x40019ec5	2.0253155
28	0xc0670531	-3.6096919
29	0xc0560405	-3.3439953
30	0xbed34d77	-0.41270038
31	0xbeb3fcc5	-0.35153785
32	0xc00511ee	-2.0792193
33	0xbff3c2c9	-1.9043819
34	0xbf0ca32c	-0.5493648
35	0xbf22c51a	-0.63582003
36	0x3fe81f25	1.8134505
37	0xc04d8fa7	-3.2118928
38	0xc05fc865	-3.496606
39	0xbf469d5a	-0.7758385
40	0xbed2676c	-0.4109453
41	0xc010677e	-2.2563167
42	0xbfd877fd	-1.6911618
43	0xbce98740	-0.028506875
44	0xbf301da3	-0.6879522
45	0xbe6304b5	-0.22169764
46	0xbf1442a0	-0.5791416
47	0xbf73c67a	-0.95224726
48	0xbec0096d	-0.3750719
49	0xbebb33e0	-0.36563015
50	0x3f3432d6	0.7039007
51	0x3ea1a61f	0.31572053
52	0xbf03a02f	-0.51416296
53	0xbec44a5a	-0.38337976
54	0x3f39085d	0.72278386
55	0xbf52503f	-0.82153696
56	0xbf0f7ae6	-0.56046903
57	0xbeb41bc5	-0.35177436
58	0xbf1b2017	-0.6059584
59	0x3f6aa2db	0.9165475
60	0xbed634c1	-0.41837123
61	0xbf103299	-0.56327206
62	0xbf36a5d2	-0.7134677
63	0xbda3bb0c	-0.07994661
64	0xbd7efd38	-0.062253207
65	0xbe053a70	-0.13010573
66	0xbea8f177	-0.32996723
67	0xbe6dc326	-0.23218974
68	0xbe023110	-0.12714028
69	0xbe692cee	-0.22771046
70	0x3e8806db	0.2656773
71	0xbea0d5f0	-0.3141322
72	0x4018f405	2.3898938
73	0xc07bbe92	-3.9335065
74	0xc067b4ca	-3.6204095
75	0xbf41c30f	-0.7568826
76	0xbef9ccd4	-0.48789084
77	0xc014adfb	-2.323119
78	0x40114f4d	2.2704651
79	0xbec90f7a	-0.3926962
80	0x3e94302b	0.28943
81	0x3e753c8a	0.23948875
82	0xbea238eb	-0.3168405
83	0xbde081d6	-0.10962264
84	0xbd957620	-0.07297921
85	0xbe9da327	-0.30788538
86	0xbe9fa0df	-0.31177422
87	0x3dc8cf90	0.098052144
88	0x3e3c039a	0.18360749
89	0xbc3bdee0	-0.011466712
90	0xc039bf85	-2.9023144
91	0xc042d014	-3.04395
92	0xc05c5de9	-3.4432318
93	0xbe91385c	-0.2836331
94	0xbe87a8ef	-0.26496074
95	0xc04dd3a6	-3.216043
96	0xc052cf6c	-3.29391
97	0x3e5bf056	0.214784
98	0xbe8e1b73	-0.27755317
99	0x4028378c	2.6283903
100	0xc035f767	-2.8432252
101	0xc046aeea	-3.104426
102	0xc0262ef2	-2.5966153
103	0xc03b4f80	-2.9267273
104	0x4029db14	2.6539965
105	0xc0382d7b	-2.877776
106	0xc022b015	-2.5419972
107	0xc0354bd1	-2.8327525
108	0x3f06d1a4	0.52663636
109	0xbed38528	-0.41312528
110	0xbe998a31	-0.29988244
111	0xbf2d03c5	-0.67583877
112	0xbf38fcdf	-0.7226085
113	0x3f027cba	0.5097157
114	0xbf331969	-0.6996065
115	0xbf1add2d	-0.6049374
116	0xbe88f24c	-0.26747358
117	0x3bafb2d6	0.005361895
118	0xbf2c054c	-0.6719558
119	0xbec756f2	-0.38933522
120	0xbebacbeb	-0.36483702
121	0xbf4f4811	-0.8096934
122	0x3eaeea87	0.34163305
123	0xbf26a8a7	-0.65101093
124	0xbf81332a	-1.0093739
125	0xbeb2e908	-0.34943414
126	0x3fff7990	1.9958973
127	0xc0362abd	-2.8463585
128	0xc0385991	-2.8804667
129	0xbf0dad59	-0.5534263
130	0xbd7ecd77	-0.062207665
131	0xc0087acf	-2.1324956
132	0xbfd0df29	-1.6318103
133	0xbf161adc	-0.58634734
134	0xbe6a228d	-0.22864743
135	0x3f0f7446	0.56036794
136	0xbeb7bcfe	-0.35886377
137	0xbf38c2b0	-0.7217207
138	0xbf06d67f	-0.52671045
139	0xbeb4f21c	-0.35340965
140	0x3f2736ed	0.65318185
141	0xbf38c08b	-0.721688
142	0xbf0b9c3c	-0.5453527
143	0xbf63fca2	-0.8905736
144	0x4019f186	2.4053664
145	0xc0595262	-3.3956532
146	0xc048438b	-3.1291225
147	0xbf3b8563	-0.73250407
148	0xbeb6685a	-0.3562649
149	0xc01433b6	-2.3156562
150	0xc00f1994	-2.2359362
151	0x3d45993b	0.048241835
152	0xbefb7edb	-0.4912022
153	0x3fe8ddc7	1.8192681
154	0xc03745d1	-2.8636363
155	0xc03ca27c	-2.9474173
156	0xbe81b200	-0.25331116
157	0xbf2403fd	-0.64068586
158	0xbff834cf	-1.9391116
159	0xc0021922	-2.032784
160	0xbf1e9b0d	-0.6195534
161	0xbef02628	-0.4690411
162	0xbe9656c0	-0.2936306
163	0xbeb7cb21	-0.35897163
164	0xbf043cc8	-0.51655245
165	0xbf3dcb0e	-0.7413796
166	0xbf6ed84e	-0.93298805
167	0x3efb47ef	0.49078318
168	0xbea192d3	-0.3155733
169	0xbecf41e6	-0.40479964
170	0xbee18698	-0.44048
171	0xc00c8e56	-2.1961875
172	0xc077fb1a	-3.874701
173	0xc07c8ba2	-3.9460225
174	0xc0532cab	-3.2996013
175	0xc050db43	-3.2633827
176	0x4024ac41	2.5730135
177	0xc02781a2	-2.6172872
178	0xc0366c66	-2.850366
179	0xc055b86b	-3.339381
180	0xbf0b8b33	-0.54509276
181	0xbeddd45e	-0.43326086
182	0xbf4aea37	-0.79263633
183	0xbebf7175	-0.37391248
184	0xbf058e3c	-0.5217016
185	0x3eff3c9f	0.49850938
186	0xbf0ca58a	-0.5494009
187	0xbf343f55	-0.70409137
188	0xbf4e2915	-0.80531436
189	0xbfa0ff71	-1.2577955
190	0xbfa5bfcc	-1.2949157
191	0xbfe8b2b8	-1.8179541
192	0xbfd4160f	-1.6569232
193	0xbfa987d4	-1.3244576
194	0x3fb08661	1.3791009
195	0x3f99a42d	1.2003227
196	0xbfae9f97	-1.3642453
197	0xbfd8db87	-1.6941994
198	0x3f1e184e	0.61755836
199	0xbf1cf167	-0.6130585
200	0xbf7796e6	-0.9671463
201	0xbe4f21e8	-0.20227778
202	0xbdb0b8cc	-0.08628997
203	0xbf13d48b	-0.5774619
204	0x3ef10d14	0.4708029
205	0x3df0a130	0.11749494
206	0xbd596948	-0.05307892
207	0xc01025ad	-2.2522995
208	0xc0609cb5	-3.5095646
209	0xc04fb33e	-3.245315
210	0xbec3b27c	-0.3822211
211	0xbf6874b9	-0.90803105
212	0xc0020923	-2.0318077
213	0xc06d8209	-3.7110617
214	0xbeabfd6a	-0.33591777
215	0xbf62ba69	-0.8856569
216	0xc01f122c	-2.4854841
217	0xc081b53e	-4.0533743
218	0xc074e278	-3.8263226
219	0xc056884b	-3.3520687
220	0xc0507949	-3.2574027
221	0x40040e62	2.0633779
222	0xc01b9c26	-2.4314055
223	0x403e2ce8	2.9714909
224	0x403f3768	2.9877567
225	0xbf2f2f11	-0.6843119
226	0xbf206633	-0.62655944
227	0xbed7980b	-0.42108187
228	0xbf6a33a0	-0.91485023
229	0xbf4d02a4	-0.80082154
230	0xbed461de	-0.41480917
231	0x3f04008a	0.5156332
232	0xbf69e5cc	-0.9136627
233	0x3eea9909	0.45819882
234	0xc03f9f0d	-2.9940827
235	0xc05a41bd	-3.4102623
236	0xc054b8a4	-3.3237696
237	0xbd4bc200	-0.04974556
238	0xbded52a0	-0.11588025
239	0xc03931c3	-2.8936622
240	0xc0483578	-3.1282635
241	0xbdf2982c	-0.11845431
242	0xbe49bcde	-0.19700953
243	0x3e1687ef	0.14700292
244	0xc051d135	-3.278394
245	0xc05e31ee	-3.4717975
246	0xbe53d3c5	-0.20686252
247	0xbea6a9ed	-0.32551518
248	0xc03dc6cb	-2.9652584
249	0xc02efc67	-2.7341554
250	0xbdb334f6	-0.08750336
251	0xbf1ca75c	-0.6119287
252	0x3e70e7b2	0.23525885
253	0xbe9b636b	-0.30349287
254	0xbd99e44c	-0.07514247
255	0xbd7a7b48	-0.061152726

linear1.bias f4 [256]
0	0xc076db96	-3.8571525
1	0xc0763d61	-3.8474963
2	0xc05d59e0	-3.4586105
3	0xc061a1a9	-3.525492
4	0xc066ee8b	-3.6083095
5	0xbeb8a2ed	-0.36061803
6	0xbed87e7b	-0.42283997
7	0x3d6088c8	0.054817945
8	0xc0823a17	-4.069591
9	0xbc225780	-0.009908557
10	0xc052d061	-3.2939684
11	0xc0396564	-2.8968134
12	0xbf3fb431	-0.74884325
13	0xbf00a5af	-0.50252813
14	0xc0479e73	-3.119046
15	0xbf59ba15	-0.85049564
16	0xc059698b	-3.3970668
17	0xc030b959	-2.7613127
18	0xbe8e78d5	-0.27826563
19	0xc0838347	-4.109775
20	0xbf73c054	-0.95215344
21	0xbfc9788c	-1.5739913
22	0xbf5855fc	-0.845062
23	0xc06301f9	-3.5469954
24	0xc081421e	-4.039321
25	0xbf4bca9e	-0.79606044
26	0xc03e6009	-2.9746115
27	0xc04b4fa4	-3.1767359
28	0xbe278a23	-0.16361289
29	0xc087ddfc	-4.2458477
30	0xc07efa64	-3.9840326
31	0xc07df281	-3.9679263
32	0xbf12243b	-0.57086533
33	0x3e01b918	0.12668264
34	0xbfea42c6	-1.8301628
35	0xbec5996a	-0.38593608
36	0xc01b422d	-2.425914
37	0xbf099c19	-0.5375381
38	0xbefa7239	-0.4891527
39	0xbf5bc45c	-0.85846496
40	0xbed65a36	-0.418657
41	0xc04db3dd	-3.214103
42	0xbe1699de	-0.14707133
43	0xbfd35e9b	-1.6513246
44	0xc01424e7	-2.3147523
45	0xbf3883e2	-0.7207624
46	0xbef3d534	-0.476236
47	0xc05b5c2b	-3.4275005
48	0xbebdce90	-0.37071657
49	0xc033fa55	-2.812154
50	0xc03460ef	-2.8184164
51	0xc02e192c	-2.7202864
52	0xc050a944	-3.2603312
53	0xbefda20d	-0.49537697
54	0xc03f2671	-2.9867213
55	0xc07714f9	-3.860655
56	0x3c184100	0.009292841
57	0xbe85f487	-0.26163122
58	0xc0362ad4	-2.846364
59	0xbf85049b	-1.039203
60	0xc0435093	-3.0517929
61	0xc088d9d5	-4.276591
62	0xbed934f3	-0.4242321
63	0xc07f7efb	-3.9921253
64	0xc04d298d	-3.205661
65	0xbfc2449e	-1.517719
66	0xc01e1e48	-2.4705982
67	0xbf303737	-0.6883425
68	0xbed370fb	-0.41297135
69	0xbf3e1f09	-0.74266106
70	0xbf39217c	-0.7231672
71	0xc0206028	-2.505869
72	0xbf1f2bce	-0.62176216
73	0xbec9ebe2	-0.39437777
74	0xc0ad9ba9	-5.4252515
75	0xc026a01d	-2.6035225
76	0xbf1e0474	-0.61725545
77	0xc0541749	-3.3139212
78	0xbf3cb6c2	-0.73716366
79	0xc081d2ef	-4.0569987
80	0x3e80c093	0.25146922
81	0xc070e50d	-3.7639802
82	0xc0a95a01	-5.292237
83	0xbec277aa	-0.3798192
84	0xbfcb31c4	-1.5874562
85	0xc0332179	-2.798918
86	0xbf260a74	-0.648597
87	0xc044dd75	-3.0760167
88	0xbf13db5a	-0.5775658
89	0xc0215703	-2.5209358
90	0xbe0000e9	-0.12500347
91	0xbf41d4d7	-0.7571539
92	0xc06dc190	-3.714939
93	0xc04f1c38	-3.2360973
94	0xc038f0ab	-2.8896892
95	0xbf5e2de7	-0.8678879
96	0xbd7aa985	-0.061196823
97	0xc08d89d3	-4.4230742
98	0xbf11a2d5	-0.56889087
99	0xbf0f4182	-0.5595933
100	0xbe4fdf96	-0.20300135
101	0xbe9b3af9	-0.3031843
102	0xbef19c17	-0.471894
103	0xc064f630	-3.577526
104	0x3e7732ce	0.24140474
105	0xbeaf4900	-0.34235382
106	0xbf3e0967	-0.74233097
107	0xc02240a5	-2.5351956
108	0xbe8ad6d9	-0.2711704
109	0xc0cea072	-6.4570856
110	0xbf062adf	-0.52409166
111	0xbe87d9a9	-0.2653325
112	0xbf6d36aa	-0.92661536
113	0xbf072bab	-0.5280101
114	0xbfde1e6b	-1.7353033
115	0xbf5bd390	-0.85869694
116	0xc0250aa4	-2.5787745
117	0xc03285a6	-2.7894073
118	0xbfbd20c8	-1.4775629
119	0xc067f18d	-3.624118
120	0xbffdb7a4	-1.9821668
121	0xbeb122f7	-0.3459699
122	0xbf40fdef	-0.7538747
123	0xbe8811ac	-0.26575983
124	0xc068ec87	-3.6394365
125	0xc02f5ac0	-2.739914
126	0xbf595cab	-0.84907025
127	0xc0712566	-3.7679076
128	0xbe9d18db	-0.30683026
129	0xbf245254	-0.6418812
130	0xc0771672	-3.860745
131	0xbe195a5f	-0.1497588
132	0xc0594ed6	-3.3954368
133	0xc0160842	-2.344254
134	0xc06c9272	-3.6964383
135	0xbed65327	-0.41860315
136	0xc014b999	-2.323828
137	0xc05ec5f5	-3.4808323
138	0xbfe7b809	-1.8103038
139	0xbf52dd74	-0.8236916
140	0xc0ae9427	-5.455585
141	0xbfcdcf43	-1.6078876
142	0xc071517c	-3.7705984
143	0xc060576b	-3.5053356
144	0xc03ac10d	-2.918033
145	0xc03cb1d3	-2.9483535
146	0xbfc7cccd	-1.5609375
147	0xc04bc1ba	-3.1836991
148	0xc057a5e5	-3.3695004
149	0xc09309ec	-4.594961
150	0xbf4f3084	-0.80933404
151	0xc03a225e	-2.9083476
152	0xbe20c74b	-0.15701024
153	0xbf182ab1	-0.5944014
154	0xbfc4b7a2	-1.536854
155	0xc048a473	-3.1350372
156	0xc0499201	-3.1495364
157	0xc050f841	-3.2651522
158	0xbee821d4	-0.4533831
159	0xc01ecf52	-2.4814038
160	0xbefb3b96	-0.49068898
161	0xbeb547d6	-0.3540637
162	0xbf167367	-0.5876984
163	0xbf5312f6	-0.8245081
164	0xc0423fb7	-3.0351388
165	0xbe8b51ef	-0.27210948
166	0xc0442f98	-3.065405
167	0xbf97bc03	-1.1854252
168	0xc04e18e0	-3.2202682
169	0xc06b4f0e	-3.6767
170	0xbea0fad9	-0.31441382
171	0xbf823f32	-1.0175536
172	0xbf7d0fd1	-0.9885226
173	0xbecc3312	-0.39882714
174	0xc0c9c727	-6.3055606
175	0xc0835d77	-4.1051593
176	0xbfd84e1b	-1.6898836
177	0xc081d3c8	-4.057102
178	0xbfc4072c	-1.5314689
179	0xc06af01e	-3.6709056
180	0xbf4bffe4	-0.79687333
181	0xc0648819	-3.5708067
182	0xbf22acad	-0.6354473
183	0xc074ba40	-3.8238678
184	0xc01d370c	-2.4564848
185	0xc055a95e	-3.3384624
186	0xc0567f06	-3.351503
187	0xbf99e5c8	-1.2023249
188	0xbef7b3b3	-0.48379287
189	0xbef0a1ad	-0.4699835
190	0xc08ba201	-4.363526
191	0xbe49822a	-0.1967856
192	0xc001b712	-2.0267987
193	0xbf3b1f44	-0.7309458
194	0xbf322539	-0.6958805
195	0xbf6a3894	-0.9149258
196	0xbed541eb	-0.41651854
197	0xc06973eb	-3.6477
198	0xbe7b4420	-0.24537706
199	0xbf8177f6	-1.0114734
200	0xc0605c66	-3.5056396
201	0xc086093d	-4.1886277
202	0xc0844629	-4.1335645
203	0xc05b369c	-3.425208
204	0xbf9ad75f	-1.2096976
205	0xc03afe5e	-2.9217753
206	0xbe195940	-0.14975452
207	0xbf575f46	-0.8412975
208	0xc081ecb4	-4.0601444
209	0x3e06343a	0.1310586
210	0xc080f9d7	-4.030498
211	0xbed1ce05	-0.40977493
212	0xc05aa712	-3.4164472
213	0xc02aba0a	-2.667605
214	0xc02dec1a	-2.7175355
215	0xc068bc26	-3.6364837
216	0xbf54642e	-0.8296536
217	0xbf4878af	-0.7830915
218	0xc0834450	-4.102089
219	0xbf5a7ff9	-0.8535152
220	0xc068b3df	-3.6359785
221	0xbf3c40af	-0.735362
222	0xc0401451	-3.00124
223	0xc05606d3	-3.3441665
224	0xc092ccdc	-4.5875072
225	0xbe9fa38f	-0.31179473
226	0xc03dd173	-2.9659088
227	0xc041a6af	-3.0257986
228	0xc05995bb	-3.3997638
229	0xbef0dfa1	-0.47045615
230	0xc01d42a6	-2.457193
231	0xbf48db66	-0.78459775
232	0xc08392d6	-4.1116743
233	0xc080083d	-4.0010056
234	0xc072faac	-3.7965498
235	0xbeb0174c	-0.34392774
236	0xbfce3fa7	-1.6113175
237	0xbf1639e6	-0.58682096
238	0xc0789a8f	-3.8844335
239	0xbf4db404	-0.8035281
240	0xbecdb23f	-0.40175053
241	0xc01ff644	-2.4994059
242	0xbf037c99	-0.51361996
243	0xbf97fb4c	-1.1873565
244	0xc0b4cbff	-5.649902
245	0xbf1f95da	-0.6233803
246	0xbecd8561	-0.40140823
247	0xc089076c	-4.282156
248	0xbefe5277	-0.4967229
249	0xc08e631f	-4.4495997
250	0xbf633f14	-0.88768125
251	0xc0604159	-3.5039885
252	0xbf4134a8	-0.7547097
253	0xbf439ada	-0.7640816
254	0xbe9a562a	-0.30143863
255	0xc037c9fc	-2.8717031

linear2.weight f4 [4, 256]
0	0x404d0fe8	3.2040958
1	0xbf096b93	-0.5367977
2	0xbea4fca6	-0.32224005
3	0xbfe4c709	-1.7873241
4	0xc0139491	-2.3059428
5	0x3eff3b1e	0.4984979
6	0x3ce8a7c0	0.028400302
7	0xbd2b0d5e	-0.041760795
8	0xbf0969b5	-0.5367692
9	0xbc66d648	-0.014089175
10	0xbcf90d8c	-0.030401967
11	0xbc9da85c	-0.019245319
12	0xbada1240	-0.0016637519
13	0x3f0b6170	0.5444555
14	0x3fe50c22	1.7894328
15	0xbca92488	-0.020647302
16	0xbfab05b1	-1.3361112
17	0x400c7fac	2.1952925
18	0x3d200786	0.039069675
19	0xbf47ef0d	-0.7809914
20	0x3f07c1e1	0.5303021
21	0x3cf1bab4	0.029507972
22	0xbf3cde9b	-0.7377717
23	0xbd623b50	-0.055232346
24	0xbf3c4157	-0.735372
25	0xbf20dcd6	-0.6283697
26	0xc0485f20	-3.130806
27	0xbebb63be	-0.36599535
28	0xbd59e952	-0.053201027
29	0xbf3caa60	-0.7369747
30	0x3eee8362	0.46584612
31	0x4049593a	3.146071
32	0xbcde1a48	-0.027112141
33	0x3caf8510	0.021425754
34	0xc0110a7d	-2.2662652
35	0x3ccdea30	0.025136083
36	0x3f999ead	1.2001549
37	0x3ef3bb2f	0.47603747
38	0x3d2bbf2a	0.041930355
39	0x3ba24180	0.004951656
40	0xbd5b3c3c	-0.05352424
41	0xc032f0d6	-2.7959495
42	0x3c72b238	0.0148129985
43	0xbf0849d5	-0.5323766
44	0x4035fb4e	2.8434634
45	0xbcd0ceac	-0.025489174
46	0x3f043263	0.51639384
47	0xbf8563e3	-1.0421108
48	0xbd4f13be	-0.050555937
49	0xc014cc61	-2.3249743
50	0x4008efe6	2.1396422
51	0xc04d9be9	-3.212641
52	0xc0038003	-2.0546882
53	0xbf13bbce	-0.5770844
54	0x3ae52340	0.0017481819
55	0x3f05d4a8	0.5227761
56	0x3ce9f998	0.028561398
57	0x3ce6b7dc	0.028163843
58	0x4024f6d6	2.5775657
59	0xbe9b7ebd	-0.3037013
60	0xbd02c9a8	-0.031930596
61	0xbd5d733c	-0.054064974
62	0x3d672b02	0.0564375
63	0x3d3d5e24	0.046232358
64	0xbd2390d4	-0.03993304
65	0xbfab8f4b	-1.3403105
66	0x4039071e	2.8910594
67	0xbbdbe640	-0.0067107975
68	0x3e12ca84	0.14335066
69	0xbcd0e4b8	-0.025499687
70	0xbf493611	-0.78598124
71	0xbd31f18a	-0.04344324
72	0x3d3c6e0e	0.046003394
73	0xbcc1f948	-0.023678437
74	0xbd6ab3be	-0.05730032
75	0x3f043153	0.5163776
76	0xbd64e9f4	-0.055887178
77	0x4017bee5	2.3710263
78	0xbca9c738	-0.020724878
79	0x4049ded9	3.1542265
80	0x3c88ad1c	0.016684107
81	0xc003ac61	-2.0573962
82	0x3fc2f9b2	1.5232451
83	0xbbfc5f60	-0.0077017993
84	0xbea424f7	-0.32059452
85	0xbfd1f8e1	-1.6404077
86	0xbf156676	-0.5835947
87	0x40208815	2.5083058
88	0x3ee1efc0	0.44128227
89	0xc0637dda	-3.5545564
90	0xbf19c05c	-0.6005914
91	0x3ee8f95c	0.45502746
92	0xbfe9f86c	-1.8278937
93	0x3cb68a54	0.022282757
94	0x40249eb8	2.5721874
95	0xbf4e0774	-0.8048012
96	0xbf1c9774	-0.611686
97	0xbf47bdd4	-0.7802403
98	0x3ef7b533	0.48380432
99	0xbcfbff84	-0.030761488
100	0x3b816690	0.003948994
101	0x3c9ff1e8	0.01952453
102	0xbe995ec5	-0.29955116
103	0xc0141b92	-2.3141828
104	0xbb065ee0	-0.0020503327
105	0xbd25eea8	-0.040510803
106	0xbf07ef2c	-0.5309932
107	0x3d2203c0	0.039554358
108	0x3d1e52b4	0.03865309
109	0xbbc9b890	-0.006156035
110	0xbf3f7040	-0.74780655
111	0x3cc0dfd0	0.023544222
112	0xbf4c16b1	-0.79722124
113	0xbd4e43ba	-0.050357558
114	0xbddc6743	-0.10761883
115	0x39ee5200	0.00045455992
116	0x3d75431c	0.059878454
117	0x3fcd1663	1.6022457
118	0x40164a3e	2.3482814
119	0x3ee8a209	0.45436123
120	0xbca71dd0	-0.020399958
121	0x3cb8bf14	0.02255205
122	0xbf172f45	-0.590565
123	0xbd35ceae	-0.04438656
124	0xc015dc9c	-2.34159
125	0x3febe681	1.8429719
126	0xbcbaae78	-0.022788271
127	0xbf342081	-0.703621
128	0x3d608678	0.05481574
129	0xbf455bea	-0.77093375
130	0x404d8c94	3.2117052
131	0xbf010652	-0.5040027
132	0x3fc15b41	1.5105973
133	0x3f044dd1	0.5168124
134	0x407f1f1e	3.9862742
135	0x3f0f99d4	0.560941
136	0xbcdfde6c	-0.027327739
137	0x4032e389	2.7951376
138	0x3fd8a38b	1.6924909
139	0xbc0667f0	-0.008203492
140	0x3d259d3e	0.04043316
141	0x3d0035a2	0.03130115
142	0x38aab000	8.139014e-05
143	0xc01aa484	-2.4162912
144	0x400e003a	2.2187638
145	0xc019ca7e	-2.4029841
146	0xbeb5ceef	-0.3550944
147	0x3ebd8700	0.3701706
148	0xbcf2d29c	-0.029641442
149	0x404e6365	3.2248166
150	0xbd3d0f80	-0.04615736
151	0xc04bf7a2	-3.1869893
152	0x3cf2f61c	0.02965837
153	0xbd5db59c	-0.054128274
154	0x3c69fe28	0.014281787
155	0x40235f9b	2.5527103
156	0x3fb6c7b6	1.4279697
157	0xc010f0e1	-2.264702
158	0x3ed9fca5	0.42575565
159	0xbcb25a74	-0.021771647
160	0xbb507580	-0.0031808317
161	0x3f01dbc1	0.5072594
162	0x3c7d0de0	0.015445203
163	0xbc57b570	-0.013165817
164	0x3ae15e00	0.0017194152
165	0xbc7401b0	-0.01489298
166	0xbeea2b9a	-0.4573639
167	0xbea30ff2	-0.31848103
168	0xc0005fe5	-2.005853
169	0xc01783c6	-2.3674178
170	0xbd553d52	-0.052060433
171	0x40368918	2.8521175
172	0xbeae142c	-0.33999765
173	0xbf02eb4b	-0.5114028
174	0xbd5fd198	-0.054643244
175	0x3e9aeeaf	0.30260226
176	0xba01dc00	-0.0004953742
177	0x3d687888	0.056755573
178	0x3ab93340	0.0014129654
179	0x4032b17d	2.792083
180	0x3d350b9a	0.044200517
181	0xc025b0a9	-2.5889075
182	0xbf9e39d2	-1.2361395
183	0x4048574f	3.130329
184	0xbd2f0cd8	-0.042736858
185	0x4034811e	2.8203807
186	0x3c196a90	0.009363785
187	0xbe95d0c9	-0.29260853
188	0xbc3cde78	-0.01152765
189	0x3efed30a	0.49770385
190	0xc0628e89	-3.5399497
191	0x3d7e4400	0.06207657
192	0xc00af5bf	-2.1712492
193	0xbf315131	-0.69264513
194	0xbcd260c8	-0.025680915
195	0x3f0d2caa	0.55146277
196	0xbf19341d	-0.59845144
197	0xbef9f853	-0.4882227
198	0xbea62fd6	-0.3245837
199	0xbf3d82ef	-0.74027914
200	0x3ee52712	0.4475637
201	0xbf33c2b1	-0.7021895
202	0xc02b0424	-2.6721277
203	0x404f105f	3.2353742
204	0x3d6563f8	0.05600354
205	0x3fb3116d	1.3989693
206	0xbcb15ae4	-0.021649785
207	0xbf168572	-0.5879737
208	0xbf39f1f6	-0.7263483
209	0xbbfc2ec0	-0.0076960027
210	0xbd72626a	-0.059175886
211	0xbf2285cf	-0.63485426
212	0xbeb1babe	-0.34712785
213	0x3ef3a326	0.4758541
214	0x3d75182a	0.059837498
215	0x3d232a90	0.039835513
216	0x3c811544	0.01575721
217	0xbed12b0d	-0.40853158
218	0xbf2d4bb9	-0.6769367
219	0x3d6362b2	0.055514045
220	0x404d08d7	3.2036645
221	0x3d43dccc	0.04781799
222	0xbc850a9c	-0.01624041
223	0xc037095b	-2.859946
224	0xbec060a2	-0.37573725
225	0x3d179c2e	0.03701418
226	0x3d72a51c	0.05923949
227	0x404cfb23	3.2028282
228	0x3d1c5e52	0.03817589
229	0x3f087911	0.5330973
230	0x3fe39e1f	1.778263
231	0xbf328445	-0.6973308
232	0x407ffdc7	3.9998643
233	0x40496f7d	3.1474297
234	0xbdc996da	-0.09843226
235	0xbf37c383	-0.717827
236	0xbc29c4d8	-0.010361873
237	0xbd3e5640	-0.046468973
238	0x3cdcc27c	0.026948206
239	0x3c85fa14	0.016354598
240	0x3d55c228	0.052187115
241	0x3d413186	0.04716637
242	0x3cb0ffcc	0.021606348
243	0xbf4d5b12	-0.8021709
244	0x404708b4	3.1099062
245	0x3ca06ff8	0.01958464
246	0x3d74c226	0.059755467
247	0xbf41fa16	-0.75772226
248	0x3f0aed3c	0.5426824
249	0x3d202a2c	0.03910272
250	0x3b73a060	0.0037174448
251	0xc014674d	-2.318805
252	0x3ef10588	0.47074533
253	0x3c9c062c	0.019045912
254	0x3d5e6346	0.054293893
255	0xc0af9e00	-5.488037

linear2.bias f4 [4]
0	0xc0d5fdb4	-6.6872196
1	0xc0e3ade3	-7.1149764
2	0xc0d9874c	-6.7977657
3	0xc0db8fb3	-6.8612914
