models/model1.pth (torch, 26009 bytes, 4 tensors)

linear1.weight f4 [256, 19]
000000 0a 0d 06 be 85 93 52 be 33 7f e3 bd 15 d3 84 be
       -0.13090912 -0.20564087 -0.11108246 -0.25942293
000010 f5 78 57 bc 32 34 65 3b 86 75 42 be 5c 3e 6a be
       -0.013151397 0.0034973738 -0.18990144 -0.2287535
000020 5d b7 43 be c0 06 e3 bc ed de b8 3d 5c b7 bc bd
       -0.19112916 -0.02771318 0.09026895 -0.092146605
000030 72 22 41 be ab 48 8a be d7 46 fe bd e0 a0 dd bc
       -0.18860796 -0.27008566 -0.124158554 -0.02705425
000040 c2 e1 ef bd 18 4d d7 3c e0 12 d3 bc 83 a0 df 3d
       -0.11712982 0.026281878 -0.025765836 0.10919287
000050 07 47 b5 bd 9a 20 69 bd 4b 71 fc bc c0 48 66 be
       -0.08851438 -0.056915857 -0.030815741 -0.2248869
000060 4d d2 7d be 61 4f 0c bc 06 e2 8c 3d 08 f9 65 be
       -0.24787255 -0.008563847 0.06879048 -0.22458279
000070 3a 23 82 3d c7 1c 89 be 09 ec 80 be cf 9c 7b be
       0.06354375 -0.26779768 -0.2518008 -0.24571536
000080 90 ba 24 3e 01 1d a0 3d ff 6f 82 be b8 30 41 3e
       0.16086793 0.07818032 -0.2547607 0.18866241
000090 9a b1 d5 bd bc 5b 66 3d 4d 42 b5 be eb c6 1e bf
       -0.104342654 0.05623983 -0.35402146 -0.62022275
0000a0 8e 40 c0 be c7 d3 c9 be 28 a5 b1 be e7 68 ea be
       -0.3754925 -0.39419386 -0.34696317 -0.4578316
0000b0 63 ce 62 be b6 a6 b9 be 75 a3 e6 bd 16 b6 1d bc
       -0.22149043 -0.36260003 -0.11261646 -0.009625932
0000c0 e1 dc 73 3d c3 3a a6 3e 03 45 bb be 45 eb 3e 3e
       0.05953682 0.32466707 -0.3657609 0.18644436
0000d0 b6 c6 5d be 06 59 47 bf 01 91 8c bd 1c da 92 3e
       -0.21657833 -0.77870214 -0.06863595 0.2868203
0000e0 b0 47 9b be 97 25 3d 3e 3f 2f ab be c4 d4 62 bf
       -0.3032813 0.1847137 -0.33434483 -0.88605905
0000f0 e3 39 ef be 4f 2b 19 bf dc 56 56 3e 76 45 ce 3d
       -0.46723852 -0.5983171 0.20931572 0.10071842
000100 cd 7b 0f be ae 3d b4 bd 1d 5f cc be 53 58 94 bf
       -0.1401207 -0.08800827 -0.39916316 -1.1589454
000110 b1 f9 e3 3e 4d 49 c7 be 8d a0 40 bf ac 28 f6 be
       0.44526437 -0.38923112 -0.7524498 -0.48077905
000120 8f 3d 4b 3e a4 fb 81 bc 70 63 2b bf 15 c7 b4 be
       0.19847701 -0.015867062 -0.66948605 -0.35308138
000130 b2 29 df 3d 40 ad 33 be 2d 3d 65 be a8 bf ee 3c
       0.108966246 -0.17546558 -0.22386618 0.029144123
000140 5c a0 b7 bd 44 7d 1b be 6c a5 35 bd 60 84 ea bd
       -0.08966133 -0.15184504 -0.04434721 -0.1145103
000150 d2 3d 03 be 53 1a 03 be 26 97 29 be a6 9c 3e be
       -0.12816551 -0.1280301 -0.16561565 -0.18614444
000160 bf e4 3b 3e f0 fa 0a bd a4 c1 00 3d 1b ed 32 3e
       0.18348978 -0.03393072 0.03143467 0.17473261
000170 5e b0 c9 3d 9b f0 18 be da db 90 3d 48 3d 5d 3d
       0.098480925 -0.14935534 0.07073183 0.05401352
000180 51 52 4b bb cc 46 ab be d6 88 8e be 6e f1 4f be
       -0.0031024406 -0.3345245 -0.27838773 -0.20306942
000190 94 14 e5 bb 6f 7c 9d be 18 4b 37 3d f5 fc 4d 3d
       -0.0069909785 -0.30758998 0.04474935 0.050290067
0001a0 a8 7d 95 3c fb 4e cc 3c 70 09 dd bd ef 44 b9 bd
       0.018248394 0.024940005 -0.10792816 -0.09046351
0001b0 cb 1d b5 be e9 a6 d1 3d 3d 39 15 3d 69 4f aa 3b
       -0.35374293 0.10236914 0.03643154 0.0051974547
0001c0 2e 70 be 3d 20 21 4d 3c 0a 3d c8 be c1 90 10 bf
       0.0929874 0.012520105 -0.3910907 -0.56470877
0001d0 4a 2d f7 bb f2 72 27 be b3 9d 03 bd 36 21 b0 be
       -0.0075432407 -0.16352442 -0.032132816 -0.34400338
0001e0 0c 8f 9b be 89 a2 57 bc a4 02 97 bd 80 86 5d bd
       -0.30382574 -0.01316131 -0.073735505 -0.054083347
0001f0 65 1a d1 bd 81 cd 5c 3e eb 19 d2 be 75 c3 d1 be
       -0.102101125 0.21562769 -0.410354 -0.40969434
000200 73 f5 68 bd 69 31 9e be 3b d6 12 3e c0 bd 7c 3c
       -0.056874704 -0.30897072 0.14339535 0.015426099
000210 5e 57 f9 3d c7 61 81 3e fa 9c 8e be c2 ff 59 be
       0.12174867 0.2526991 -0.2785414 -0.2128897
000220 13 7b d1 bd dd 10 13 be 1e ff 97 be 34 97 09 be
       -0.10228553 -0.14361902 -0.29686826 -0.13436586
000230 ae c9 1c be ac 57 53 3c 4e 5d 00 bd 03 15 9d bc
       -0.1531131 0.012899321 -0.031338982 -0.019175058
000240 f7 29 1b be 2f 85 64 be b8 c2 8d be e6 c4 9d be
       -0.15152727 -0.2231643 -0.2768762 -0.30814284
000250 cf e4 34 be 07 81 a6 be b5 de ce 3d fa 56 bf bd
       -0.17665409 -0.32520315 0.10101072 -0.09342761
000260 7d 2f 88 3e bd 4b 80 bd cb e1 ab bc 15 db d7 be
       0.2659873 -0.06264446 -0.02098169 -0.42159334
000270 1b 4c 9e bc 72 68 36 bd 7c a6 f4 bd cd 80 a7 3c
       -0.0193234 -0.0445332 -0.11945817 0.02044716
000280 7a c5 df 3c 36 63 41 be 7e c6 49 be 1a 2b 1a 3e
       0.027315844 -0.18885502 -0.19704625 0.15055504
000290 c7 01 e3 be 4d 99 99 3e bb 74 50 3d 25 00 71 be
       -0.44337294 0.29999772 0.050892573 -0.23535211
0002a0 1a b7 c0 bd 47 e6 36 3e b6 63 2a bc ff 06 2f bf
       -0.09409924 0.17861281 -0.0103997495 -0.6837005
0002b0 32 3c f4 be 9e 33 87 bf da 7b 51 bf d3 fb 27 bf
       -0.47702175 -1.0562627 -0.8182961 -0.6561863
0002c0 02 2c e0 be f1 0c 3a be ec d1 49 be b2 95 92 be
       -0.43783575 -0.18168999 -0.19708985 -0.28629833
0002d0 1a 00 93 bc 63 aa 1e bf eb 02 99 be 70 5f 2e be
       -0.017944384 -0.6197874 -0.2988504 -0.17028594
0002e0 e7 99 08 3f 61 80 17 bb 6d d3 65 bb 3d 79 7c 3e
       0.53359836 -0.0023117291 -0.0035068647 0.24655624
0002f0 6e 01 4f be 6e 28 1c 3c 0b b1 e4 3e 12 fc 88 be
       -0.20215389 0.009531124 0.44666323 -0.26754814
000300 a9 04 c8 be e1 aa e2 be 99 e1 c8 be aa a8 a2 bd
       -0.39066055 -0.44270995 -0.39234617 -0.07942326
000310 0a 1f 85 bd ba 66 c1 bd e0 2d 6f bd 7a 96 1f be
       -0.06500061 -0.09443422 -0.05839336 -0.15584746
000320 61 95 d5 be d1 a8 b0 be 8e 77 cb be e4 83 77 be
       -0.4171553 -0.34503797 -0.3973965 -0.24171406
000330 1a 3d 75 bd 67 07 84 3e 8b 89 1c 3e f2 72 28 be
       -0.059872724 0.25786898 0.15286843 -0.16450098
000340 75 ad 3f 3e ea 3b 39 be 42 84 cf be ea 5f 92 be
       0.18718512 -0.18089262 -0.40530592 -0.28588802
000350 aa 9c b3 be b6 43 2f bd 77 3f 81 be ff f1 9c bd
       -0.35080463 -0.042789184 -0.25243732 -0.076633446
000360 31 9c 08 be da 13 a1 3d f8 6b a7 3c dc b6 99 be
       -0.13340832 0.078651145 0.020437226 -0.30022323
000370 4c 8c 9b be ba 66 02 be 3c cb 04 3e 92 c6 c2 bc
       -0.30380476 -0.127345 0.12968153 -0.023776326
000380 b2 fb 3f be d7 c9 19 be f0 a6 3c bd cf 6f 04 3e
       -0.18748358 -0.15018402 -0.04605764 0.12933277
000390 01 b2 c2 be 9e ba a7 bf 67 bf 56 bf a2 52 8e bf
       -0.3802643 -1.3103826 -0.83885807 -1.1118968
0003a0 ef c8 53 bf ed be ae be 46 af a5 bd 06 6d 50 be
       -0.82728475 -0.3413004 -0.080900714 -0.20354089
0003b0 d1 ca b0 be 72 51 d9 be 02 1c 80 be 69 39 25 3e
       -0.34529737 -0.4244495 -0.25021368 0.16135181
0003c0 59 4a ba 3e c5 67 44 3f e3 99 4e bf d7 fe 44 3e
       0.36384848 0.7672084 -0.8070356 0.19237839
0003d0 d0 5e 58 3d 90 88 66 3e 0b c9 7a be 11 86 37 3e
       0.052824795 0.22513032 -0.24490754 0.17922236
0003e0 fe 3f 87 be 5e 04 ab be 13 eb ce 3c ab 0b 9e be
       -0.2641601 -0.3340177 0.025258576 -0.30868277
0003f0 8f d0 6c 3d 97 2c 9b bc 29 67 b2 bb 8c 9b 1e bd
       0.057816084 -0.01894216 -0.0054444266 -0.03872256

linear1.bias f4 [256]
000000 77 35 17 bf 62 ba e6 bd 11 8f 1c bf fe 7f f3 be
       -0.59065956 -0.112660185 -0.611558 -0.47558588
000010 c3 33 00 be 59 b4 8c be 75 3d f1 be 2c ee 1e bf
       -0.12519746 -0.27481344 -0.471172 -0.6208217
000020 c3 75 4e be 96 c5 40 bf ac ff b8 be e5 8c af be
       -0.2016211 -0.7530149 -0.36132562 -0.34287181
000030 d0 99 4c bf d8 53 a7 be 03 af a1 be 62 93 35 be
       -0.799222 -0.32681155 -0.31578836 -0.17732003
000040 c6 c3 22 be 1a c9 bb be cc 5f f3 be 57 f6 29 bf
       -0.15894994 -0.36676866 -0.47534025 -0.6639151
000050 10 c7 3e be 55 0e 58 bf 91 1b be be a5 90 7e be
       -0.18630624 -0.8439687 -0.37130406 -0.24859865
000060 d9 01 17 bf 9b 82 0f bf 77 ad 73 be 0c 73 77 be
       -0.58987194 -0.56058663 -0.2379664 -0.2416498
000070 fe 0c 21 bf 41 52 99 be 8f c8 a0 3d 54 08 2e be
       -0.6291045 -0.29945567 0.078507535 -0.16995364
000080 7b 1d f7 be 42 ba 44 be 51 43 17 bf d8 7e 90 bc
       -0.4826468 -0.19211677 -0.5908709 -0.017638609
000090 e3 8d 6a be 11 9d a6 be 2b af e5 be fc d6 a3 be
       -0.22905688 -0.32541707 -0.44860205 -0.31999958
0000a0 6a d2 c2 be 2e 19 bb be 83 3d 52 be b3 56 52 be
       -0.38051158 -0.36542648 -0.20531277 -0.20540886
0000b0 57 83 b5 be 5e 28 f3 be 3a 4e a7 bf 35 23 22 bf
       -0.35451767 -0.47491735 -1.3070748 -0.6333497
0000c0 08 d1 78 be c5 19 9f be a1 f2 f1 bd 2d c0 bb be
       -0.24298489 -0.31074348 -0.11813856 -0.36670056
0000d0 94 b1 f6 bd eb db 2c bf d9 f1 31 be 01 68 e2 be
       -0.12045589 -0.6752307 -0.17377414 -0.44219974
0000e0 0e 55 12 be d9 37 8f be 87 10 cf be 35 11 9b be
       -0.14290258 -0.27972296 -0.40442297 -0.30286565
0000f0 e0 bb dc be e2 36 13 bf fd 55 4b be 69 17 b9 bd
       -0.43112087 -0.5750562 -0.1985702 -0.09037668
000100 6b 22 d2 be 1a a9 26 be 5f 67 02 bf f5 dc c2 be
       -0.41041884 -0.16275445 -0.5093898 -0.38059202
000110 34 28 c6 be b7 61 b8 be c1 7b 5c be 53 f2 9d be
       -0.38702548 -0.3601205 -0.21531583 -0.3084894
000120 76 6d d0 bc ca 8f 94 be 3e 57 3c be 7f 47 c6 be
       -0.02544282 -0.29015952 -0.18392655 -0.38726422
000130 da 47 70 be b7 a4 15 bf 8f bc a2 be 4c 68 b5 be
       -0.23464909 -0.5845446 -0.31784484 -0.35431135
000140 98 67 a2 be 8a e3 80 be 88 90 b9 be 67 95 e9 be
       -0.3171966 -0.251736 -0.3624308 -0.45621797
000150 63 91 8c be ff 88 10 bf 3a 26 f8 be 8c d7 e7 be
       -0.2745467 -0.5645904 -0.48466665 -0.45281637
000160 50 37 98 be 40 29 9b be a5 b4 2a bf 0b 3f 06 bf
       -0.297297 -0.3030491 -0.6668189 -0.52439946
000170 a1 36 dc be 7b 12 59 be e6 eb e3 be 72 b5 ad be
       -0.4301043 -0.21198456 -0.44515914 -0.33927494
000180 55 2c 5c be 8e 91 02 bf c7 9a a7 be 31 3b 33 be
       -0.21501286 -0.5100335 -0.32735273 -0.17503048
000190 e9 8e b8 bd 15 d2 a5 be be c5 6f 3d be a8 96 be
       -0.09011633 -0.32386842 0.05853819 -0.29425615
0001a0 9e 67 f0 be c7 20 27 bf 67 0c 09 be ce f6 f0 bd
       -0.46954054 -0.6528439 -0.13383637 -0.11765824
0001b0 f7 61 04 bb ee 6a 5a be cb 46 23 be 7d 92 a9 be
       -0.0020199993 -0.21329853 -0.15944974 -0.33119574
0001c0 29 02 4d be a9 8c a0 bd e9 31 85 be 64 05 9f be
       -0.20020355 -0.07839329 -0.2601464 -0.310588
0001d0 e6 b9 c9 be 76 53 08 bf 59 db ba be 37 e6 29 bf
       -0.39399642 -0.5325235 -0.36495474 -0.66366905
0001e0 47 f2 bf be a9 f3 3c be fe 8d b0 be bc fa bd be
       -0.3748953 -0.18452324 -0.3448333 -0.37105358
0001f0 f9 ae c3 be 94 2a 51 bf 8f 26 b5 be a0 81 c0 bd
       -0.3821943 -0.81705594 -0.3538098 -0.09399724
000200 3f 0f 6e be 01 85 4c be bb cb 82 be c7 bf 61 be
       -0.23248003 -0.19972612 -0.2554606 -0.22045814
000210 f9 db 8e be 8e c4 b3 be ac a9 c2 bc 2e 1c fb be
       -0.279022 -0.35110897 -0.023762546 -0.49044937
000220 65 8f 47 bc f6 c0 80 be 1d b7 40 be 46 cd c0 be
       -0.012180184 -0.25147218 -0.18819852 -0.3765661
000230 b4 6f ad bd 2a 23 ef be cd a6 b0 be e8 ed 03 bf
       -0.08468571 -0.46706516 -0.3450226 -0.5153489
000240 00 0d 9b be cc 31 4d be 09 fa 07 be aa 93 f8 be
       -0.30283356 -0.20038527 -0.13278975 -0.4855016
000250 d1 ca b1 be 57 a5 b4 be 41 4a 53 be ac e5 ab be
       -0.3472505 -0.35282394 -0.20633794 -0.33573663
000260 6d 91 ab be 1a 19 d5 be 6f 13 1e be f5 9f f2 be
       -0.3350939 -0.41620713 -0.15437101 -0.47387663
000270 86 25 ca be 26 20 d3 3b d4 76 f5 be 6e a6 9a be
       -0.39481753 0.0064430414 -0.4794222 -0.302051
000280 c2 6a d6 be 05 53 bf be a2 86 43 be 3b 15 8f 3f
       -0.41878325 -0.37368026 -0.19094327 1.1178354
000290 68 af b6 be 09 50 1f bf 69 77 1b bf d3 43 33 bf
       -0.356807 -0.622315 -0.6072908 -0.70025367
0002a0 77 27 61 be 28 eb 28 bf 08 9b c5 be 2f 75 08 bf
       -0.21987711 -0.6598382 -0.38594842 -0.5330381
0002b0 e7 f3 ae be 87 1c 04 bf 10 74 89 be 7f ff 60 be
       -0.34170458 -0.5160603 -0.2684636 -0.21972464
0002c0 76 ae 10 bf ea ce 5f be 63 31 ed bd 2a 76 ea be
       -0.56516206 -0.21856275 -0.115816854 -0.45793277
0002d0 a5 f5 8f be b6 7a e1 be d5 88 93 be ba bc 47 be
       -0.281171 -0.44038934 -0.28815332 -0.19505587
0002e0 13 6d ab be 5d 5d 91 be c2 8d 1d bf 7d 13 a5 be
       -0.33481655 -0.28391543 -0.6154443 -0.3224143
0002f0 c5 11 52 be dd 6c 01 bf d1 81 0b bf 1d 39 0f bf
       -0.20514591 -0.5055674 -0.5449496 -0.5594652
000300 6e 00 bc 3e be 3f 60 be 2d 9d 00 bf 90 1b 35 be
       0.36719078 -0.21899316 -0.5023983 -0.17686296
000310 53 37 26 bf e7 89 52 be 22 b2 da be c4 6d 3e bd
       -0.6492817 -0.20560418 -0.4271403 -0.0464914
000320 69 1b 0a be 01 12 da be 08 19 8c bd 01 8b a1 bd
       -0.13487019 -0.4259186 -0.06840712 -0.07887841
000330 6a dd ea be 79 bd 99 be 5a 86 cb be d3 a4 af be
       -0.4587205 -0.3002737 -0.3975094 -0.34305438
000340 ad d3 d6 be 14 8b 06 bf 95 b7 71 be 2a fa 06 bf
       -0.4195837 -0.52555966 -0.23605187 -0.5272547
000350 32 8e f0 bd 55 47 1d bf 2e 12 81 be 7e 6a 8b be
       -0.117458716 -0.6143697 -0.25209183 -0.27229685
000360 5f 7d 9f be 0c 3a d7 be 82 62 d9 be 4d 87 c3 be
       -0.31150338 -0.42036474 -0.42457968 -0.38189164
000370 c5 90 02 be 0b fe b2 bd f2 3b 6c bf 39 9c ae bd
       -0.12750538 -0.08739861 -0.9227897 -0.08525891
000380 d9 5f ca be a7 91 d1 be c6 a6 7a be 40 0a 27 bf
       -0.3952625 -0.40931436 -0.24477682 -0.65250015
000390 b0 b6 dd be 52 7e be be f2 34 a2 be b4 4c b9 be
       -0.43303442 -0.3720575 -0.3168102 -0.36191332
0003a0 01 34 b9 bd 0b 26 b3 be 2a 5f c2 be 28 ef bf be
       -0.09043122 -0.34989962 -0.3796323 -0.3748715
0003b0 e3 6d 26 bf 14 08 b7 be 38 76 9a be 9c 0f 15 bf
       -0.65011424 -0.3574835 -0.3016832 -0.58226943
0003c0 e9 10 cc be 59 25 92 be ed 98 8d bf f8 7b c5 bc
       -0.3985665 -0.2854412 -1.1062294 -0.024106964
0003d0 92 f9 1f bf c4 45 e7 be b9 85 c6 be e1 da 95 be
       -0.6249019 -0.45170414 -0.38773897 -0.29268554
0003e0 d6 07 af be 8c 87 23 bf 8a 03 30 be 67 4c 9e be
       -0.34185666 -0.63878703 -0.1718885 -0.30917665
0003f0 fc 8c c6 be 3c 6f 8f be f5 87 09 bf 07 4d b4 be
       -0.38779438 -0.28014553 -0.5372308 -0.35215017

linear2.weight f4 [4, 256]
000000 fe 07 60 3d b6 16 6b bd fb b0 2b be 7c b6 80 be
       0.054695122 -0.057394706 -0.16766731 -0.25139225
000010 a0 2b a3 3b 19 c1 7b 3c 8f 6a 32 be e9 e8 f1 be
       0.0049795657 0.015365862 -0.17423461 -0.4724801
000020 0d df 03 bd 84 97 be be 26 5c 4c 3e a2 10 e3 3b
       -0.03219514 -0.37224972 0.19957027 0.006929473
000030 f0 89 37 be c7 c3 e4 3d b2 02 56 bd ab 90 0b be
       -0.17923713 0.11170154 -0.052248664 -0.13629405
000040 c1 4a 32 3d ab 9c 74 be a9 67 b9 be cc c1 91 3e
       0.043528322 -0.23887889 -0.362119 0.28468168
000050 71 51 07 bd ca b9 8a be 4d 97 85 3c 03 7c fd bc
       -0.033036653 -0.2709487 0.016307497 -0.030942922
000060 68 fb 64 3d 90 85 aa bd 5c b0 b5 bc 91 5e 1c 3d
       0.055903822 -0.08326256 -0.022178821 0.038176123
000070 60 ad 3c be 05 a8 87 3e ae d3 31 3e 44 ca 42 3d
       -0.18425512 0.26495376 0.17365906 0.047556177
000080 de e8 0a bd ae cc 59 bb 98 65 2b 3d c8 c0 14 3c
       -0.033913486 -0.003323357 0.041844934 0.009079166
000090 05 93 9a be c0 0c 52 3e fb 8f 56 3e c0 07 0a bc
       -0.30190292 0.20512676 0.20953362 -0.008424699
0000a0 62 42 87 be 60 af 12 bd 80 0e 3a bd 90 cc 03 3d
       -0.26417834 -0.035811782 -0.045423985 0.032177508
0000b0 80 75 c9 3a 08 4e 15 be 87 08 32 bf a1 e7 a1 3d
       0.0015370101 -0.14580548 -0.6954426 0.07905508
0000c0 c8 13 c5 3c a9 d6 17 be 6d 98 fb 3d 53 65 61 3e
       0.024057284 -0.1482798 0.12284932 0.22011308
0000d0 7c 32 44 3d 91 9d 19 3e 72 38 9e bd 98 ca 04 3e
       0.04789971 0.15001513 -0.0772561 0.12967908
0000e0 2c 47 38 bc 93 5c 63 bc db d4 5f 3e 24 ea 08 bd
       -0.011247437 -0.013877052 0.21858542 -0.03342642
0000f0 34 89 83 3e fa 9b aa 3d 30 6e af 3c cb 2f 97 3d
       0.25690615 0.083305314 0.021414846 0.07382163
000100 00 5a bf b9 15 27 40 bf 29 97 8d 3e fa 08 bd 3d
       -0.00036497414 -0.75059634 0.2765439 0.09230228
000110 47 d1 c3 3d 6a 29 9b 3e 0e b7 21 be c2 78 51 3d
       0.09561401 0.30305034 -0.15792486 0.051140554
000120 54 d5 9d 3c f2 9c 6d be ff ad 1c 3c 1d 1c c8 bc
       0.019266762 -0.23204401 0.009562968 -0.024427468
000130 f8 46 53 3e ce 7a 66 3d 0f 91 48 bd e5 e0 c7 bd
       0.20632541 0.05626946 -0.048966464 -0.09759692
000140 e0 1b e6 bd af 5b ca bd 14 a8 58 bd 5d 32 86 3e
       -0.112357855 -0.098807685 -0.052894667 0.262103
000150 7c 58 70 be 8d 0d 36 be cd b7 62 3e 58 f8 97 3e
       -0.23471254 -0.17778607 0.22140427 0.2968166
000160 fe b2 46 bd 0e 03 ad 3d 5d 7e b0 bc 08 ed 4b 3e
       -0.048510544 0.08447848 -0.02154463 0.19914639
000170 28 83 f9 bc 27 7a de 3d a9 66 0f bd d8 cd 36 bd
       -0.030458048 0.108631425 -0.035010014 -0.0446299
000180 0f 81 31 bd 2c 99 09 bd 06 d7 ce bd e6 67 dc bd
       -0.04333597 -0.03359334 -0.10099606 -0.107620046
000190 95 e3 0c bd e1 6b a2 3d 58 a2 b3 be 0e b6 a3 bc
       -0.034396727 0.079307325 -0.35084796 -0.019984271
0001a0 26 af 3c 3d 8f 33 05 bc 82 09 dd b9 38 c1 78 3d
       0.046065472 -0.008129968 -0.0004215949 0.060731143
0001b0 00 e9 04 3e 96 3c 49 bd 48 47 c8 bd d5 c1 f5 3d
       0.12979507 -0.049130045 -0.09779221 0.11999861
0001c0 b5 7a bd be ac e0 0a bd 50 29 c5 bb f9 b0 22 3e
       -0.3700768 -0.03390567 -0.0060168877 0.15887822
0001d0 a9 b9 8f 3d c0 1a be bc c2 5a 84 3d dd 58 c8 be
       0.07017834 -0.023206115 0.06462623 -0.39130297
0001e0 48 ca 32 be 4a d0 a5 bc 54 7e fa bc 2b 2c 60 be
       -0.17459977 -0.020240922 -0.030577816 -0.21891849
0001f0 bf a8 9d 3e 67 86 51 be c7 2c 83 3e e1 31 dc bd
       0.30792806 -0.20461427 0.256201 -0.10751701
000200 0a 9c 0b bd 13 df 6f bd de d6 ef bd a5 69 a6 bd
       -0.034084357 -0.05856235 -0.117109045 -0.08125619
000210 09 7f 45 3c 4b be 7b 3e 40 11 05 bc 9b c0 95 be
       0.012054213 0.2458431 -0.0081217885 -0.2924851
000220 fc da 97 bc e0 cd a6 3c d2 d6 29 be 2b 54 e6 3b
       -0.018537037 0.02036184 -0.16585854 0.0070290766
000230 14 25 ee be fd 2c 9e 3e 66 f2 00 bb 0a 8b d1 3d
       -0.46512663 0.30893698 -0.001967573 0.10231598
000240 61 df 74 be 30 33 82 bb ae d1 d9 bd 2c 9f a3 be
       -0.23913337 -0.003973387 -0.10635696 -0.31957376
000250 ae bc c2 be 36 79 86 bd 7a c9 84 3c 14 6a ec 3c
       -0.38034576 -0.06566088 0.016209353 0.028859176
000260 1d 8a 44 be 8b 83 72 bc 0c db 70 be 3b 68 f9 3d
       -0.19193311 -0.01480187 -0.2352106 0.121780835
000270 42 41 6a bd 33 3c 35 bf 78 02 27 be 47 64 ea bd
       -0.05719114 -0.7079498 -0.16309536 -0.11444908
000280 84 9e 19 bd 67 1c ab 3e 4b a6 d1 bd cf 5c 77 bf
       -0.037504688 0.33420107 -0.10236796 -0.9662599
000290 6a 3d 0d be 05 44 5b be ed 48 72 3e b2 6b 93 3e
       -0.13792959 -0.21412666 0.23660631 0.28793103
0002a0 0c c0 83 be 9a 13 4e be 65 8c 84 3e 6d 40 c5 3e
       -0.25732458 -0.20124665 0.25888363 0.38525715
0002b0 36 bc 40 3d 25 74 8a 3e 42 f8 8e be d4 2b 65 be
       0.047054492 0.27041736 -0.2792378 -0.2238
0002c0 f9 58 b2 be 1f 75 8e bb 3c 24 01 bf 42 34 05 be
       -0.34833506 -0.004347458 -0.50445914 -0.13008216
0002d0 5e e4 6a bd de 64 fe 3c c2 a3 dd bc e8 22 2f bd
       -0.057346694 0.031053957 -0.027055625 -0.0427579
0002e0 d2 78 1e 3d 24 05 ad bd 4b 48 96 be ce d0 93 3d
       0.038689442 -0.08448246 -0.2935203 0.07217561
0002f0 24 a4 e7 bc ef 47 5d 3d 89 08 9c 3e 88 47 9d 3e
       -0.02827651 0.05402368 0.30475262 0.30718637
000300 15 35 83 bf 67 22 79 3d 06 80 f2 3c 64 96 88 be
       -1.0250574 0.060823824 0.029602062 -0.2667724
000310 8d a2 fd 3e 6b 62 3b bb 5a 61 0e bf f0 61 09 be
       0.4953808 -0.0028592597 -0.55617297 -0.13416266
000320 e8 05 c7 3b cc c7 11 bf 46 aa 39 3d bc 12 40 bd
       0.006073702 -0.5694549 0.0453284 -0.046892866
000330 c8 52 09 3c 69 8e d3 be 38 ad fa bd 58 e7 ee bc
       0.008381553 -0.41319588 -0.1224007 -0.029163048
000340 80 c8 69 3b 34 9d b0 3e 94 26 71 3d df 6f db bd
       0.0035672486 0.34494936 0.05887468 -0.10714697
000350 c7 f2 ce 3e 50 49 9a 3d 6e 8f 58 3e 8d 8f f9 be
       0.404196 0.075335145 0.21148464 -0.48742333
000360 0d d3 87 be b8 bd 3f 3d 64 af a2 be 70 df 42 3e
       -0.26528206 0.04681179 -0.31774437 0.19030547
000370 c3 ef 9b bc 2c c0 8b be ab 51 a9 be e7 42 d3 be
       -0.019035226 -0.27295053 -0.3307012 -0.4126198
000380 ad 8c a6 3b 57 35 4d 3e 5e 91 0a be 3b 67 af bd
       0.005082688 0.20039879 -0.13532016 -0.085646115
000390 80 67 f0 3b 4d 1a 8f bd c8 3c d3 3c b0 99 ac 3b
       0.007336557 -0.06987438 0.025785819 0.0052673444
0003a0 4c 75 f6 3c 5c 5a 28 bd ea 16 f5 bc 08 20 a3 3d
       0.030085228 -0.0411018 -0.029918153 0.07965094
0003b0 99 5a 85 3c 30 f0 8a 3b f3 65 5b be f4 09 12 be
       0.016278552 0.0042400584 -0.2142561 -0.1426161
0003c0 5a 40 41 3c df f4 d1 bd 59 c2 fd be 17 62 dd bc
       0.011795128 -0.102517836 -0.49562338 -0.027024312
0003d0 ba 56 01 bd 61 cd 97 be 88 a4 a0 3c 78 5a a0 be
       -0.03157685 -0.2964888 0.019609705 -0.31319022
0003e0 e4 ff 99 3e a5 0e 8d 3c 61 ad 45 be 77 84 ab bc
       0.30078042 0.017218897 -0.1930442 -0.020937188
0003f0 38 0a 65 3d 58 83 ab bd ae 1e 9f 3d 82 6f 9c 3d
       0.05591795 -0.08374661 0.077695236 0.07638456

linear2.bias f4 [4]
000000 80 d1 d6 c0 fc eb d6 c0 fc 83 d9 c0 bd aa d3 c0
       -6.7130737 -6.7163067 -6.7973614 -6.614592
